Digit-recognition/model_2.pt (torch_old, 493013 bytes, 12 tensors)

weight f4 [32, 1, 5, 5]
000000 da b4 b4 3d 87 e8 80 3d 00 66 9b 3e cb 5f c7 3d
       0.08823557 0.06294351 0.30351257 0.09735068
000010 61 29 76 3d b3 16 9d bc 90 6a 0d 3d 32 d3 ab bd
       0.060098056 -0.019175863 0.034525454 -0.08389892
000020 16 70 89 3d f7 63 03 3e 85 8a 22 bd eb 7f 59 3c
       0.06710832 0.12831102 -0.039682884 0.013275127
000030 67 82 5f be 2b 81 cc bd 09 4c 75 3e 23 fd 80 bd
       -0.21827088 -0.09985574 0.23954786 -0.06298282
000040 aa 3e 3d be 12 1b 32 be 72 bf 6c 3d 44 fe 1f 3e
       -0.18480936 -0.17393139 0.057799764 0.15624338
000050 b9 69 50 3c 87 16 a2 3d d5 91 20 3e 7b 14 21 3d
       0.012720519 0.07914453 0.1568063 0.039326172
000060 32 51 79 3e d6 af 27 3d 09 8d 63 3b 7b d1 be be
       0.2434738 0.040939175 0.0034721515 -0.37269196
000070 33 74 fd be 49 db 95 bf 30 f4 96 3d e8 75 84 3e
       -0.49502715 -1.1707546 0.07370794 0.25871205
000080 b7 0c 3c be 8a c2 78 3e 96 48 3b bf 83 84 78 bd
       -0.18364225 0.24292961 -0.7315763 -0.060673248
000090 ff 64 19 3e 4f f5 b3 3d 7d e4 4d 3e 00 f6 0b bf
       0.14979933 0.08787023 0.20106693 -0.5467224
0000a0 3d a4 53 bf e8 f6 2a 3d 3d d0 94 3e cf 24 c4 3d
       -0.8267248 0.041739374 0.29065123 0.09577333
0000b0 91 53 73 be 58 45 0c 3f c2 21 46 3d 62 36 70 bc
       -0.23762347 0.5479331 0.048372038 -0.014661403
0000c0 ff 6b 1c be 29 28 98 be 12 ab 18 3d 89 aa 0d 3e
       -0.15275572 -0.2971814 0.03727252 0.13834585
0000d0 71 8d 60 3d c0 d5 b5 3d ab 62 46 bd 20 a7 82 be
       0.05482239 0.0887866 -0.04843394 -0.2551813
0000e0 bb f8 17 3e 63 65 bd 3d 1f 54 56 bc 88 0e d1 bd
       0.14840977 0.092478536 -0.0130815795 -0.1020785
0000f0 44 92 05 3e 17 b6 a3 3e 10 73 0e be 8a 5b ad bd
       0.13044077 0.3197486 -0.1391108 -0.08464725
000100 21 2f 67 bc 23 3c 72 3e 01 17 2c bb fd de 1e 3e
       -0.0141103575 0.23655753 -0.0026258829 0.15514751
000110 e7 02 99 3d 66 e8 82 39 71 93 49 3e 2c 7d a8 bc
       0.07471257 0.00024968683 0.1968515 -0.0205675
000120 2a c0 6d bd 2f 66 ca be 53 d1 7b be 1e 98 43 bd
       -0.05804459 -0.39531085 -0.2459157 -0.047752492
000130 c4 35 5f 3e dd 2c 6c 3e aa 2b 9e 3c e0 03 f5 3d
       0.21797854 0.23063989 0.01930793 0.1196363
000140 ec fb 49 bd 08 a8 e5 3e d6 c5 4b be 60 1c a1 be
       -0.049312517 0.4485476 -0.19899687 -0.3146696
000150 22 82 ad 3e 0a 05 85 be 46 37 89 3e b0 69 5b bf
       0.33888346 -0.25980407 0.26799983 -0.8570814
000160 2f 74 9a bd d0 64 3e 3e 59 72 fb be cf 4c 1b bf
       -0.075416915 0.18593144 -0.49110678 -0.60664076
000170 ab fb af 3e 13 90 c6 3c f1 1f 98 3d dc 1d 18 bf
       0.34371695 0.024238622 0.07427967 -0.5942056
000180 5d 72 5b be c9 6d 09 be b0 59 16 be ee 40 04 3e
       -0.21430345 -0.13420786 -0.1468265 0.12915394
000190 9d 19 a5 be 67 5a 25 bd d2 e6 fe 3d 4f c4 42 3c
       -0.32246104 -0.040369418 0.12446369 0.011887624
0001a0 53 9d 2a 3e a8 2d 4d bf 01 d7 e3 3c f6 e2 9a be
       0.16661577 -0.8014779 0.027812483 -0.30251282
0001b0 df 69 8b 3d 74 ee 54 3d 17 86 a2 bf 7d db 49 bf
       0.06807303 0.05198522 -1.2697171 -0.7885054
0001c0 b5 33 47 be 92 79 3d be e0 d1 56 3e 86 95 03 be
       -0.19453318 -0.18503407 0.20978498 -0.12850007
0001d0 40 1a 32 3e 44 f3 f5 be 67 98 c5 be a1 cf ce 3e
       0.17392826 -0.4803716 -0.38592836 0.40392783
0001e0 85 af 2e bd bd 3a 7b 3d cd 10 0e be 5c bd 48 be
       -0.042647857 0.061335314 -0.13873596 -0.19603485
0001f0 f5 90 25 bd 50 c0 69 bd 98 e9 21 3d 85 f9 de 3d
       -0.040421445 -0.05706817 0.039529413 0.10887436
000200 1a 4b 89 3e 00 16 c3 3e 55 ed dc 3d a5 05 8e bc
       0.2681511 0.38102722 0.10787455 -0.017336676
000210 0f 6d 78 bd 6c 9c b4 be 74 da d6 bc 9b b9 28 3c
       -0.06065088 -0.3527559 -0.026227213 0.010298158
000220 84 ae 26 3c e4 ab 59 be 5c e8 06 bf b9 7f 62 bd
       0.010173444 -0.21256977 -0.526983 -0.055297587
000230 cc 3f 9c 3d b2 9f 93 bd f9 ee d7 be 32 92 a5 be
       0.07629356 -0.07208194 -0.4217451 -0.323381
000240 32 60 e3 be 59 6c 4d 3e 15 9d ce 3d 85 c8 0d 3e
       -0.4440933 0.20060863 0.10088555 0.13846023
000250 56 47 eb be 57 84 99 bf 51 ff 9f bc 18 3b 12 bc
       -0.45952863 -1.1993512 -0.019530924 -0.008925222
000260 d1 b3 b3 3d c2 6e 35 be c0 da 26 be b3 bb 59 bd
       0.08774532 -0.17718032 -0.16294384 -0.05315752
000270 50 d2 7e 3d cb a0 61 be e4 1b 7f be de 45 a9 3e
       0.06221229 -0.22033994 -0.24912983 0.33061117
000280 d5 2d 95 3e 46 95 35 be 8b 8b f9 bd b8 6b 1d 3e
       0.2913653 -0.17732725 -0.12184819 0.15373123
000290 f1 bf c9 3e 3d 3f 4c 3e 68 0d fc 3b 02 9d 8c 3e
       0.39404252 0.19945998 0.007692028 0.27463537
0002a0 b5 82 3f 3e b2 16 01 be 94 d9 29 3e 5c f3 b1 bc
       0.18702205 -0.12606314 0.16586906 -0.021722488
0002b0 1b 6e 20 be 7a 01 9f bd f4 7e 9a be 2b 55 47 3e
       -0.15667002 -0.077639535 -0.30174983 0.19466083
0002c0 4f 4e 98 bc 3a 05 fe 3d 13 0f a0 be 0e b8 b6 be
       -0.018592028 0.12403341 -0.312615 -0.35687298
0002d0 ac f4 52 3d 30 46 dc 3c 16 5f 1a bf 1c dd 82 bd
       0.05150287 0.026888937 -0.6030134 -0.063898295
0002e0 e1 e5 a0 bd 78 45 2c bd ce 01 2e bf 26 cd ab bd
       -0.07856346 -0.042058438 -0.67971504 -0.08388738
0002f0 c4 15 35 3e e8 55 bc 3d 17 81 d8 be 7b 60 96 bb
       0.17684084 0.09196073 -0.42285988 -0.004589138
000300 d2 b7 8e 3e 66 8c 82 3b a1 42 4a 3e 70 ab 95 be
       0.2787462 0.003984022 0.1975198 -0.2923236
000310 15 d0 c4 3c 62 34 b6 3d 07 a1 f8 3d 23 46 60 3e
       0.024025002 0.0889671 0.121400885 0.21901755
000320 37 d8 a6 be 09 43 a0 be 18 b3 26 be 6a 7b b3 bd
       -0.32586834 -0.31301144 -0.16279256 -0.08763774
000330 08 32 15 3d 67 3a 04 3f 95 ca 20 bf 2f ef 60 3d
       0.036424667 0.51651615 -0.62809116 0.054915603
000340 b6 1b bf 3d 1c 9b 23 3e fa 26 7c 3e 54 c0 23 bf
       0.09331457 0.15977138 0.24624243 -0.63965344
000350 82 5e 02 3e a6 de c7 3d 5c 78 c0 3e b6 13 0e 3e
       0.12731364 0.09759264 0.37591827 0.13874707
000360 c3 be d4 be 70 4a 4f bd 9b ea ba 3d 36 fe 92 3e
       -0.4155179 -0.0506081 0.09126779 0.28709573
000370 9c 33 03 3e ac 6d 8d be 2e e5 82 be 29 ff 5b be
       0.12812656 -0.27622736 -0.25565475 -0.21484055
000380 be 48 94 3d 3a bd 87 3e 75 38 0f be 92 0c a6 be
       0.07240437 0.26511556 -0.1398638 -0.32431465
000390 3c 1a 01 be 35 eb dc bd 33 14 b6 3e 92 a4 02 3e
       -0.12607664 -0.1078705 0.35562286 0.12758091
0003a0 f7 f3 96 3d 7d 66 ce 3d 41 f2 05 be bd 10 f7 3d
       0.07370751 0.10078142 -0.13080694 0.120637394
0003b0 d2 da 8d 3e 45 64 ed bb 56 62 43 bd 58 e4 e5 bd
       0.2770601 -0.007244619 -0.047701202 -0.11225194
0003c0 2d 69 bd 3d 16 48 2c 3e 60 65 2d bd 7f dd d9 3d
       0.09248576 0.16824374 -0.042333007 0.1063795
0003d0 8c 14 c9 bd 78 74 e9 3c 85 38 e1 b8 7f 13 b3 3d
       -0.09818372 0.02849792 -0.00010739364 0.08743953
0003e0 78 14 51 3c ad bc 84 3b 41 df dd bd 87 d6 33 3e
       0.012761228 0.004050812 -0.10833598 0.17562304
0003f0 e6 ab fd 3d 47 1f 7f 3d 49 2e 60 3e cd 04 4d be
       0.12386303 0.062285688 0.21892656 -0.20021363

bias f4 [32]
000000 a3 27 1b bf 0f 2c 95 be 08 8b 38 bf cd 80 e9 be
       -0.60607356 -0.29135177 -0.72087145 -0.4560608
000010 c1 cf 11 bd e7 fb 57 be a6 41 2b bf 7d d6 6d be
       -0.03559852 -0.21092187 -0.66897047 -0.23226352
000020 60 d9 f6 be aa bc 15 bf 93 fa 39 bc 53 35 1c 3e
       -0.4821272 -0.58491004 -0.011351245 0.15254717
000030 e4 30 e3 be 61 d5 08 3c 45 ab 93 be 4b f3 9e be
       -0.44373238 0.008351655 -0.28841606 -0.31044993
000040 94 bf 89 be 9f 61 b3 bd f0 19 85 be b1 a4 d7 bd
       -0.26903975 -0.08758854 -0.2599635 -0.10529459
000050 65 a3 99 3d 89 08 c0 3d 18 ce 56 bf ea 3a e3 be
       0.07501868 0.09376628 -0.83908224 -0.44380885
000060 1b 7a 1e be 7a ec 04 bd 91 0b b7 bc ba 40 f1 3d
       -0.15476267 -0.032452084 -0.022344382 0.11779924
000070 e6 96 77 be 2d c2 e7 bd 1d 88 b0 be 78 8d f5 be
       -0.24178657 -0.11316333 -0.34478846 -0.47959495

weight f4 [32, 32, 5, 5]
000000 58 60 3d bd 84 18 37 bd da 28 18 bd 69 f6 13 bd
       -0.04623446 -0.044701114 -0.037148334 -0.036123667
000010 4c be e6 bc 99 a4 23 bd 6d 03 61 bd 9a f0 0e bd
       -0.028166912 -0.039951894 -0.054934908 -0.034897424
000020 cc 67 e4 bc 4e b2 67 bc 82 9b 92 bd dc 63 5f bc
       -0.027881525 -0.014141632 -0.07158567 -0.013634648
000030 45 16 7b bd c4 6c 1c bd 11 c4 12 bd a9 b1 60 bd
       -0.061300535 -0.038189664 -0.035831515 -0.05485693
000040 c1 14 fa bc fc 90 9e bd 96 2f 69 bd 25 9e cd bd
       -0.030527474 -0.07742497 -0.056930147 -0.10039929
000050 1f ca 90 bc 74 eb 9c bd 62 ce 92 bd 55 ca a8 bd
       -0.017674504 -0.076620966 -0.07168271 -0.08241717
000060 de 8e 92 bd e3 74 80 bd 9d 93 3c bd 82 26 0d bd
       -0.07156156 -0.06272294 -0.046039212 -0.034460552
000070 6f 81 17 bd 2b 6c 82 bd ae e1 1f bd cd 6e 76 bd
       -0.036988672 -0.06368288 -0.039033584 -0.06016426
000080 9b e1 ab bd 9f 94 fc bc a3 d3 d2 bc da d9 11 bd
       -0.0839264 -0.030832587 -0.025735682 -0.03560815
000090 58 d1 9c bd a5 ed fa bc dd d9 98 bc 24 de cb bd
       -0.07657117 -0.030630896 -0.018658573 -0.09954479
0000a0 90 d9 24 bd 60 5f a2 bd 76 71 b2 bd 8c 74 60 bd
       -0.040246546 -0.079283476 -0.08713047 -0.054798648
0000b0 44 79 80 bd 7d 8c 3b bd a6 01 2d bd 48 cb 52 bd
       -0.062731296 -0.045788277 -0.0422379 -0.051463395
0000c0 63 ea 78 bd cb f4 a2 bd ed fb e8 bc 78 bc 59 bd
       -0.060770404 -0.07956847 -0.02844044 -0.053158253
0000d0 ff d0 0a bd 19 dc 96 bd 98 03 99 bd 73 ca 65 bc
       -0.03389072 -0.07366199 -0.074713886 -0.014025318
0000e0 8f fc 2a bd 35 8a b1 bd 25 d2 a2 bd 60 b4 30 bd
       -0.041744765 -0.08668939 -0.07950238 -0.04314077
0000f0 82 c3 06 bd 5b 81 8b bd a4 1d ae bd f3 90 fb bc
       -0.032901295 -0.06811782 -0.08501747 -0.030708766
000100 03 9b a3 bd 71 6a 05 bd 76 0e 81 bd 24 1c 9c bd
       -0.079885505 -0.032572214 -0.06301586 -0.07622555
000110 94 f9 9e bd 91 4c a7 bc 72 02 0f bd 78 da 8f bd
       -0.07762447 -0.020422252 -0.03491444 -0.070240915
000120 88 81 68 bd fc 08 1f bd 17 35 80 bd 84 c4 20 bd
       -0.056764156 -0.038826928 -0.06260126 -0.039249912
000130 a3 b1 6b bd 08 75 d0 bc 2e ae 13 bd 35 5b 38 bd
       -0.057542454 -0.02544643 -0.036054783 -0.045008857
000140 af fd 95 bd 89 5d 49 bd f6 3f b6 bc 43 5e e1 bc
       -0.07323777 -0.049161468 -0.022247296 -0.027510768
000150 49 02 b3 bd 80 29 6e bc e3 a0 38 bc 16 a5 93 bd
       -0.0874067 -0.014536262 -0.011268827 -0.07209222
000160 16 b7 09 bd 4f 92 7f bd de 6b 98 bd eb bd 9b bd
       -0.03362187 -0.06239539 -0.07442449 -0.07604583
000170 70 0b 93 bd 44 b1 6f bd 50 18 8a bd 30 56 5a bd
       -0.07179916 -0.058518663 -0.067429185 -0.05330485
000180 9f ad dc bc e3 fb 9b bd 21 c2 cf bd c1 6a c5 bd
       -0.026938258 -0.07616403 -0.10144449 -0.09639502
000190 cd f4 a3 bd 2b e4 8e bd 49 0f 82 bd 4b 01 ad bd
       -0.080056764 -0.06977113 -0.06350572 -0.08447512
0001a0 3b 4d b9 bd 80 0f 3f bd d2 36 85 bd 80 84 cb bd
       -0.09047934 -0.04664564 -0.06504597 -0.09937382
0001b0 fd 11 ce bd 4b ce 18 bd 36 1f 05 bd 8c 36 33 bd
       -0.10062025 -0.03730611 -0.03250047 -0.04375319
0001c0 e2 28 58 bd 25 6d a0 bd 01 20 4a bd 6a 7b 94 bc
       -0.052773364 -0.07833318 -0.049346928 -0.018125255
0001d0 13 84 87 bc 16 73 0b bd 09 52 8b bd 28 24 bc bd
       -0.01654247 -0.0340453 -0.06802756 -0.09186584
0001e0 35 e6 0b bd 56 53 0d bd 41 9d 88 bd 2c 4b b1 bd
       -0.03415509 -0.034503303 -0.06670619 -0.08656916
0001f0 e8 bd c6 bd 01 70 b7 bd a9 43 29 bd 38 01 4b bd
       -0.097041905 -0.0895691 -0.04132429 -0.04956171
000200 81 fb 83 bd f5 48 ca bd 4c 15 fe bc d5 fa 78 bd
       -0.06444455 -0.09877197 -0.031016015 -0.060786087
000210 dc 30 10 bd a4 03 1b bd 8a 81 58 bd 78 0c 70 bd
       -0.035202846 -0.03784527 -0.052857913 -0.05860564
000220 b9 38 1e bd 21 74 cf bd 93 96 5d bd e6 ed 81 bd
       -0.038628314 -0.10129572 -0.054098677 -0.06344204
000230 6c aa 73 bd d0 f0 b3 bd e5 c1 96 bd c2 dc 53 bd
       -0.0594887 -0.08786166 -0.07361201 -0.051724203
000240 08 51 88 bd 6e f9 3f bd d4 c5 97 bd 81 85 4d bd
       -0.066560805 -0.046868734 -0.074107796 -0.050176147
000250 89 83 5d bd 5b 53 49 bd 28 5e bc bd 8c 61 2b bd
       -0.05408052 -0.04915176 -0.091976464 -0.041841075
000260 8b 8d 80 bd 1f 24 bd bd ac 90 05 bd c2 e4 ae bd
       -0.06276997 -0.09235405 -0.032608673 -0.08539726
000270 7b 77 58 bd 85 c8 b8 bd 06 e4 35 bd 9a b1 27 bd
       -0.05284832 -0.09022621 -0.044406913 -0.04094086
000280 89 38 01 bd cf a4 4d bd 11 de be bd 46 8f 4d bd
       -0.031548057 -0.050206 -0.093196996 -0.050185464
000290 26 32 9f bc c2 e2 6c bd ac f6 57 bd b2 a4 3f bd
       -0.019433092 -0.05783344 -0.05272548 -0.046787925
0002a0 6f 13 d4 bc 70 de 3f bd 2e 12 58 bd 96 66 90 bc
       -0.025888173 -0.046842992 -0.052751713 -0.017627042
0002b0 70 97 8e bd 90 70 ac bc f0 51 41 bd e2 e3 93 bd
       -0.06962478 -0.021049768 -0.047197282 -0.072211996
0002c0 22 88 a5 bd 1c 4e 97 bd bd 90 af bd 99 f7 87 bd
       -0.08082606 -0.07387945 -0.085725285 -0.066390224
0002d0 2f 4c 8e bd b7 2a b1 bd 48 fb 89 bd 25 c6 54 bd
       -0.069481246 -0.08650725 -0.06737381 -0.051946778
0002e0 fc 31 67 bd bb d4 a3 bd 4f 68 93 bd fa 14 85 bd
       -0.056444153 -0.079995595 -0.0719763 -0.064981416
0002f0 25 9e c6 bd 94 6d cb bd fd 31 3a bd 5f 21 77 bd
       -0.096981324 -0.0993301 -0.04545783 -0.06033456
000300 4c 55 9f bd 00 1a 8a bd 71 f9 3b bd 8a a1 c3 bd
       -0.07779941 -0.0674324 -0.045892183 -0.095522955
000310 93 c4 0b bd 51 e7 bf bd 1c 34 35 bd 6e 98 79 bd
       -0.034123015 -0.09370292 -0.04423915 -0.060936384
000320 cc 8b b8 bd ea ef 8d bd a8 df 9c bd a5 73 c7 bc
       -0.09011039 -0.069305256 -0.076598465 -0.024347136
000330 90 eb 4d bd fd 3d b3 bd b2 ca e0 bc 6e 58 31 bd
       -0.050273478 -0.08752058 -0.027440403 -0.043297224
000340 b9 dc 3f bd fb d5 09 bd f1 a1 58 bd 92 61 42 bd
       -0.046841357 -0.033651333 -0.052888814 -0.04745633
000350 12 ff 40 bd aa 95 1e bd 6d 03 05 bd 75 5f aa bc
       -0.047118254 -0.03871695 -0.03247397 -0.02079747
000360 ab 44 24 bd c3 b7 90 bd 11 c6 91 bd a9 61 8e bd
       -0.04010455 -0.070663 -0.07117856 -0.06952221
000370 db cd 2e bd 25 0e 7e bd 76 da 9a bd 3e 23 93 bd
       -0.042676788 -0.062025208 -0.07561199 -0.07184456
000380 57 60 ab bd 55 69 ad bd 34 30 28 bd 6d ca cb bd
       -0.08367985 -0.08467356 -0.041061595 -0.09950719
000390 ab 11 69 bd 7d 89 10 bd ed d2 be bd b6 0a 57 bd
       -0.056901615 -0.03528737 -0.09317575 -0.05250045
0003a0 c7 9e 51 bd c2 5e a1 bd 22 44 cd bd 30 97 77 bd
       -0.051176812 -0.07879402 -0.10022761 -0.060446918
0003b0 36 c7 9c bd 79 91 39 bd 54 8f 83 bd c6 03 68 bd
       -0.07655184 -0.04530475 -0.06423822 -0.056644224
0003c0 25 f6 a3 bd 0c ff 5d bd 03 0a 5f bd 5f fb 80 bd
       -0.08005933 -0.05419831 -0.054452907 -0.06297945
0003d0 8b b0 eb bc a9 44 2c bd 6a 86 9d bd a5 28 7e bd
       -0.028770706 -0.042057667 -0.07691653 -0.06205048
0003e0 7f c1 19 bd 56 53 87 bc 38 bb c2 bd 99 7b 96 bd
       -0.037538048 -0.01651923 -0.095083654 -0.07347793
0003f0 2b 6a cc bd 4a 38 db bd 2b 96 ba bd 5a b6 45 bd
       -0.099811874 -0.10704096 -0.091106735 -0.048269607

bias f4 [32]
000000 5f 2c 9f bd 06 35 d6 bd 4d 13 7f bc 79 7b 62 bd
       -0.07772135 -0.10459332 -0.0155685665 -0.055293534
000010 3e 6a 87 bd dc 0c 5f bd 9e 1f bb bd 8f 4d 2a bd
       -0.06612061 -0.054455623 -0.0913689 -0.041577872
000020 45 f4 fb bd 16 e4 a5 bd f3 e5 93 bd d4 24 bb be
       -0.1230245 -0.081001446 -0.07221594 -0.36551535
000030 69 b6 4a bd d6 92 f1 bc d2 c6 cd 3e 4e ce 1a bd
       -0.049490366 -0.029488962 0.4019075 -0.037794404
000040 38 54 a7 bd b4 0c a7 bd e3 4d af bd dd db e4 be
       -0.0817036 -0.0815672 -0.085597776 -0.44698992
000050 35 15 e8 bd ad 82 cf bc af 51 15 3f c1 61 5c bd
       -0.1133217 -0.025330866 0.58327764 -0.053804163
000060 b0 01 05 3a 7f 03 fe 3e 17 8f 35 bd 69 ed e9 3e
       0.0005073799 0.49612042 -0.044325914 0.45688942
000070 be 1a 1a bd 4b 53 1c bd 77 72 fc bc 0c f9 a9 bd
       -0.03762316 -0.038165372 -0.0308163 -0.08299455

weight f4 [64, 32, 3, 3]
000000 16 25 dc bb 7a 0e 3d 3c af 20 a5 bc 58 9b 5f 3c
       -0.006718288 0.011539096 -0.020157186 0.013647877
000010 4d ae eb 3b c8 63 66 bd 46 3b 0e bd f1 84 03 bd
       0.007192409 -0.056247503 -0.034724496 -0.032109205
000020 e7 f4 8b bd 87 81 8c bd 23 9e 6e bd b3 67 9a 3c
       -0.06833821 -0.06860643 -0.05825628 0.018848276
000030 51 6f eb bb 9d c2 6e bd b2 c4 08 be af 70 66 bc
       -0.007184901 -0.058291066 -0.13356283 -0.014064952
000040 b2 66 62 bd 33 22 26 bc 10 93 98 bd 1e c1 16 bd
       -0.05527372 -0.01013999 -0.07449925 -0.036805265
000050 72 6b c9 bc 8c 25 89 bd df 36 f2 bc 56 b1 a2 bd
       -0.024587367 -0.066966146 -0.02956718 -0.079439804
000060 1f a0 5e bd f4 88 d2 bd 6d 05 6e bd d4 af df bd
       -0.054351922 -0.10280028 -0.058110643 -0.109222084
000070 3f 3b c1 bc 0a d9 02 be 94 11 ba bc b3 c2 81 bd
       -0.023587821 -0.12778106 -0.02271346 -0.06335964
000080 21 d8 97 bd f0 14 eb bd f8 04 d4 bc 49 b4 9e bc
       -0.0741427 -0.11478603 -0.025881276 -0.019373076
000090 00 62 b1 3a 99 dc 05 3d db 42 45 bd 96 de b8 bd
       0.0013533235 0.03268108 -0.04815946 -0.0902683
0000a0 ec 9f 50 bd 0c cc ad bd 25 fd 19 bd e8 3c 6e bd
       -0.050933763 -0.084861845 -0.037594933 -0.058163553
0000b0 5e d7 a6 bc 6e 5b 9a bc 08 bc 21 bd f5 1d 43 3c
       -0.020366367 -0.018842425 -0.03948596 0.011908998
0000c0 b5 b1 80 bd 9e e1 1a bd 6c 7c e7 bd 05 e6 cc bc
       -0.06283895 -0.03781282 -0.113030285 -0.025012026
0000d0 36 72 a9 bd 30 64 6a bd f3 97 4e 3d 68 b0 30 3b
       -0.08273737 -0.057224452 0.05043788 0.0026960615
0000e0 77 e3 40 3d 09 c5 14 3d 69 b7 ed 3d 92 9d 7f 3d
       0.047091927 0.03632072 0.11607248 0.06240613
0000f0 3f a6 5f bc e2 34 06 3b 15 1c f0 bd 69 44 d1 bd
       -0.013650476 0.0020478298 -0.11724106 -0.10218126
000100 86 d8 e0 bd 33 ad 09 be 3a d1 a1 bd 75 5d 71 bd
       -0.109787986 -0.13444977 -0.07901235 -0.05892702
000110 a8 26 cb bd 3c f2 e1 bd 5c aa ae bd 8d 55 fb bd
       -0.099194825 -0.11032531 -0.08528587 -0.12272177
000120 63 03 d4 bd 0e bf c1 bd c2 bb 7c bd 48 ba fc bd
       -0.103522085 -0.09460269 -0.061702497 -0.12340218
000130 a5 aa 1e bd 26 4e af bd 7c c8 d6 bc 10 38 1a bc
       -0.038736958 -0.085598275 -0.026218645 -0.00941278
000140 57 ea 58 bd bd 3b 14 bd cc 5e 11 bd e7 a9 99 bd
       -0.05295786 -0.036189783 -0.035490796 -0.075031094
000150 ac f8 68 bc f5 ff b1 bc a2 38 55 bd f7 29 ce bd
       -0.014219444 -0.021728495 -0.052055962 -0.10066598
000160 35 c1 ee bd 62 3f 75 bd 8b 3c 25 bd 47 aa 54 3c
       -0.11657945 -0.0598749 -0.04034094 0.01298005
000170 0a d7 89 bc cb 92 2c bc 80 54 d6 bd 40 f4 1f bd
       -0.016826171 -0.010533045 -0.10465336 -0.039051294
000180 75 fd 9e bd e9 f7 e6 bc d8 d5 bf bd 55 d1 02 be
       -0.07763187 -0.028194385 -0.09366959 -0.12775166
000190 ac d7 91 bd 03 3e 5c bc 9a ce fc 3b 7f a6 79 be
       -0.07121214 -0.013442519 0.0077150585 -0.2437992
0001a0 c5 8d cf bc 14 c2 63 3d d9 86 b0 be 29 c5 ad bd
       -0.025336156 0.05560501 -0.3447788 -0.08484871
0001b0 28 02 a2 bd 84 c5 d7 bd 41 cb 4c bd 9f d9 94 bd
       -0.079105675 -0.1053572 -0.049998526 -0.072680704
0001c0 e2 b6 02 be be 86 02 be 14 cb f5 bd bb 64 f2 bd
       -0.12765077 -0.12746713 -0.12001625 -0.11835619
0001d0 66 bb ab bc 42 04 7d bd 71 c3 56 bd 93 f3 00 be
       -0.020963382 -0.06177164 -0.05243248 -0.12592916
0001e0 30 90 9c bd 47 b3 8c bd e5 b4 b9 bd 37 d3 cd bd
       -0.07644689 -0.06870132 -0.09067706 -0.10050052
0001f0 8a 7d 02 be 22 0a f0 bd 55 8c 0d bd cc 37 9b bd
       -0.12743202 -0.11720683 -0.03455766 -0.07579002
000200 7b 31 6d bd 24 29 32 bd 59 ee 90 bd 1a e2 38 bd
       -0.057908516 -0.043496266 -0.07076711 -0.045137502
000210 f5 2f 94 bd 2c 7c 0a bd d6 ee 6c bd 7e 47 79 bd
       -0.072357096 -0.033809826 -0.05784496 -0.060859196
000220 05 3a 91 bd 40 6c 21 bd de 64 65 bd 88 61 a3 bd
       -0.070911445 -0.039409876 -0.056004398 -0.07977587
000230 9f 7b 55 bd 5f 2e bd bd d9 24 51 bd ec db 19 bd
       -0.052119847 -0.0923736 -0.05106053 -0.03756325
000240 cd 36 1d bd 90 b8 8e bd ad b6 09 bd e4 c7 70 bd
       -0.03838234 -0.06968796 -0.03362148 -0.05878438
000250 cb 05 60 bd f7 72 36 bd 39 fb 0a bd 5c 98 1a bc
       -0.054693025 -0.044543233 -0.03393099 -0.009435739
000260 2f 24 44 bc 78 d8 e3 bc ae e1 83 bd 8f 9f 58 bd
       -0.0119715175 -0.027813181 -0.06439529 -0.052886542
000270 c6 f9 82 bd c2 f1 9e bd b4 24 bc bd 0b 9b 38 bd
       -0.06395297 -0.077609554 -0.09186688 -0.045069735
000280 4e ea b4 bd e7 96 d6 bd 53 c8 51 bd 90 22 87 bc
       -0.088337526 -0.10478001 -0.051216435 -0.016495973
000290 af 53 7f bd 0a b7 9e bc 3a d5 3f bd 75 5b ce bd
       -0.062335666 -0.01937439 -0.046834208 -0.10076038
0002a0 e1 fd e0 bd 57 b7 d9 bd 9e 49 f6 bd 44 a3 bc bc
       -0.109859236 -0.106306724 -0.1202576 -0.02302707
0002b0 b3 ec d0 bd 5e e7 86 bd 27 49 cf bd 2e c9 41 bd
       -0.10201397 -0.065870985 -0.101213746 -0.047311
0002c0 99 20 76 bd f4 b9 16 bc 64 e8 1a bd fb e8 92 bd
       -0.06008968 -0.009199608 -0.03781928 -0.07173344
0002d0 15 ab 6d bd ba 7b 07 bd c8 2e a2 bd 17 02 d6 bc
       -0.058024485 -0.03307698 -0.07919079 -0.026124043
0002e0 c7 b2 74 bb 1a 92 a0 bd f3 a8 cc bd 9f 06 99 bd
       -0.0037338005 -0.07840367 -0.09993162 -0.07471966
0002f0 53 b5 c8 bd c8 cf c6 bd 41 ce 17 bd 58 bd 00 be
       -0.0980021 -0.097076 -0.037061933 -0.12572229
000300 c9 a6 e5 bd 96 af 1e bd 41 b4 68 bd 98 4c 5b bc
       -0.11213452 -0.03874167 -0.05681253 -0.013384961
000310 47 f2 df bd 12 33 8e bd da bb 4f bc b9 9c 3f bc
       -0.109348826 -0.06943335 -0.012679065 -0.01169508
000320 ca 7c 69 bb 27 4c b2 bd bb df 9c bd 3e d5 b4 bd
       -0.0035627359 -0.08705931 -0.07659861 -0.08829735
000330 d8 d8 5b bd 99 dc 2c bd b2 07 80 bd 1b ce b8 bd
       -0.053673595 -0.042202566 -0.06251468 -0.090236865
000340 ae df f1 bd 9a c0 5c bd fa ed 1b bd 6e 66 de bd
       -0.11810242 -0.053894617 -0.03806875 -0.10859381
000350 f8 fa 4a bd 56 80 13 bd 43 e8 b6 bd 35 c4 e1 bd
       -0.04955575 -0.036011063 -0.08931019 -0.11023752
000360 4e d0 15 be d1 27 98 be 75 ff ac be 6c 69 72 be
       -0.14630243 -0.29717878 -0.33788648 -0.23673028
000370 9b f3 84 be 40 85 d0 be 85 56 5c be d5 ce 57 be
       -0.25967106 -0.40726662 -0.2151738 -0.21074994
000380 60 02 c6 be 3f a4 8a bd 84 42 ff bd bb 23 ab bd
       -0.38673687 -0.06769609 -0.12463859 -0.083564244
000390 a2 ee 80 bd 45 a1 93 bd fc 75 b6 bd 8f 3e bd bd
       -0.062955156 -0.07208494 -0.089092225 -0.09240448
0003a0 16 bb df bd 6d 3f 7e bc 21 3e b9 bd 35 70 b1 bd
       -0.10924356 -0.015518052 -0.09045053 -0.0866398
0003b0 f0 8d c4 bc 01 c0 12 bd 18 3a af bc 7d 89 68 bd
       -0.023993462 -0.03582764 -0.021390006 -0.056771744
0003c0 4c 07 bb bd 32 ae bf bc 60 68 20 bd fc 8e 92 bd
       -0.09132251 -0.023398492 -0.03916204 -0.07156178
0003d0 4b 87 c3 3a 7e 0d c6 bd cb 08 fc bc 8d f7 61 bc
       0.001491764 -0.09670542 -0.030765912 -0.013791931
0003e0 e5 f2 b4 bd 49 51 80 bd 8d 3f b5 bd c3 3a 9f bd
       -0.08835391 -0.06265504 -0.08850012 -0.0777488
0003f0 3a ec 95 bd 2c f5 8a bd 5d a0 8c bd 9c 21 05 be
       -0.07320447 -0.06785044 -0.06866524 -0.13001102

bias f4 [64]
000000 65 c0 cc bd 2b 80 70 bd b1 fd 30 be 1d 4c 67 3e
       -0.09997634 -0.05871598 -0.17284276 0.22587629
000010 6b 41 09 bd 03 ee ae bd 1f 23 d6 bd 58 f3 4c bc
       -0.033509653 -0.08541491 -0.104559176 -0.01250919
000020 62 69 38 bd 85 f9 46 3e c3 0a b2 bf 62 39 c5 3d
       -0.045022376 0.19431122 -1.3909534 0.096300855
000030 aa be 52 be 56 86 1f 3f b7 30 cc bd 13 b3 00 be
       -0.20580545 0.62314355 -0.09970229 -0.12568311
000040 09 21 44 bd 8f d1 48 bd 04 69 09 bd 83 05 cc bd
       -0.047883067 -0.049027976 -0.033547416 -0.09961989
000050 6b ea e2 bd d6 a0 92 bd 72 5d a6 be a9 4d 52 be
       -0.11079868 -0.07159583 -0.32493168 -0.20537437
000060 be 96 69 be 4d af 45 3e f4 3a 24 bd 84 b4 9f bf
       -0.2281141 0.19305153 -0.040095285 -1.2476964
000070 4d 52 55 bd db 31 bf bd 27 f0 8a be 51 19 26 3f
       -0.05208044 -0.09335681 -0.27136347 0.6488238
000080 a3 e8 84 bd 7a 47 2c be 30 84 3f bd 4f a2 38 bd
       -0.064896844 -0.16824141 -0.046756923 -0.045076665
000090 57 21 39 3e 67 94 ae 3c 49 8b 39 bd 9f 00 10 3f
       0.18079124 0.021310998 -0.04529885 0.5625095
0000a0 81 20 16 3f 0d 36 fa 3d 48 da fd 3b 85 da fa be
       0.5864335 0.122173406 0.0077469684 -0.48994842
0000b0 94 f0 81 bc 96 e5 86 bc 10 ea 7f 3e 63 08 8b bd
       -0.015861787 -0.016466897 0.24991632 -0.06788709
0000c0 c1 77 22 3f 5c 44 37 bd 7f df f9 ba dc 1b 97 3e
       0.6346398 -0.044742927 -0.0019063799 0.29513443
0000d0 71 56 b2 bd 9c e7 93 bd 72 e6 c3 3e d8 c9 11 be
       -0.08707894 -0.0722191 0.38261753 -0.14237154
0000e0 2e 91 9c 3e fe ea 1b 3b 3e 9c 49 bd cb ca 8c bd
       0.30579513 0.002379119 -0.04922127 -0.06874617
0000f0 6a 3b 49 bd d9 5b 7b 3e d3 8d 07 3e 36 71 0a be
       -0.049128927 0.24546756 0.13237695 -0.13519749

weight f4 [64, 64, 3, 3]
000000 6c 0b 3b bd 36 42 a6 3c 8b d6 72 3d 4c 6e d8 bc
       -0.04566519 0.020295244 0.059286635 -0.026419781
000010 c7 d5 d7 3c da c4 8b 3d cd 23 8a bd 44 ec 27 3d
       0.026347054 0.06824656 -0.0674511 0.040996805
000020 02 1e 7c 3d 78 d7 7a 3d e9 a8 97 bd 0b 81 9f bd
       0.061552055 0.061240643 -0.07405264 -0.07788285
000030 ed 3a 2a 3d a8 06 be 3d e5 e7 8d bd 12 87 15 3d
       0.041560102 0.09278613 -0.06928996 0.036505766
000040 cb d1 81 3d 26 88 bc bd 8e 39 6d bd 5e 8f b0 bd
       0.06338843 -0.09205656 -0.057916217 -0.08621095
000050 63 b2 ae bd 78 b5 cc bc f3 b1 79 bd a3 78 bc bd
       -0.08530118 -0.024988875 -0.06096072 -0.09202697
000060 ea e6 be bc a2 22 81 bd 76 70 a0 bd c0 de 90 bb
       -0.023303468 -0.06305434 -0.0783395 -0.004421085
000070 7d b1 cd bc 3d dd 7f bd bc 41 ad be 59 9c 27 be
       -0.025109047 -0.06246685 -0.33839214 -0.16368236
000080 c2 a1 0d be d4 2f 86 3e 9c 9d 31 be c7 9a c5 bc
       -0.13831237 0.26208365 -0.1734528 -0.024121655
000090 76 2b 8c bd 82 a3 bf bd dc c7 49 bd 01 84 c0 bd
       -0.06844227 -0.093573585 -0.049262866 -0.09400178
0000a0 52 c7 f0 bc 6f 2b b0 bd e4 f5 9a bd 0a 60 be bd
       -0.029391918 -0.08602034 -0.07566431 -0.09295662
0000b0 2a df 80 bd a7 2c 68 bd 02 95 8b bd 7e 31 c8 3c
       -0.06292565 -0.05668321 -0.0681553 0.024437662
0000c0 a6 de 5a bd 26 21 e6 3c 68 87 3d bd 88 12 40 3d
       -0.05343499 0.028091978 -0.04627171 0.046892673
0000d0 f4 9b 8a 3d cf 86 87 bd db 08 86 bd 9f 35 ab bd
       0.06768027 -0.066175096 -0.06544658 -0.08359837
0000e0 2e b6 8d bd fc 7a 8b bd 61 c3 77 bd f9 44 43 bd
       -0.06919514 -0.06810567 -0.060489062 -0.0476732
0000f0 f0 a3 79 bd 30 35 d5 bc bc be ca bd f9 20 26 bd
       -0.06094736 -0.026026338 -0.09899661 -0.04055879
000100 e3 8e 25 bd 7f b6 ea bc e7 e4 42 bd 51 bf f9 3c
       -0.04041947 -0.028651474 -0.04758158 0.030486735
000110 45 3a b5 bc be 87 c0 3d 1c 91 58 3d 03 30 cb 3d
       -0.022122512 0.09400891 0.052872762 0.09921267
000120 97 98 83 3d e7 19 79 bd e7 65 5a bd 17 62 7f bd
       0.064255886 -0.060815718 -0.053319838 -0.062349405
000130 b0 5e 69 bd 4f f8 a8 bd a7 b1 27 bd 82 29 ca bd
       -0.056975067 -0.08250486 -0.040940907 -0.09871198
000140 49 50 a0 bd 64 d4 8b 3e 5e a2 28 3e 59 a9 dd 3c
       -0.07827813 0.2731048 0.16468188 0.02705829
000150 e4 02 2a 3e 85 a0 fc bc c9 38 ff bc a5 94 f3 bd
       0.16602665 -0.03083826 -0.031155007 -0.11893586
000160 94 cc bf bd 45 54 be 3c 9b 87 0f be 30 c4 14 3e
       -0.09365192 0.023233542 -0.14016573 0.14527965
000170 c3 7e 78 3d ee 47 e8 bd 53 02 bd 3d 98 a0 53 be
       0.060667764 -0.113418445 0.09228959 -0.2066673
000180 8e e1 14 be 87 b3 91 3d 86 c3 de bd 68 2f 81 be
       -0.14539167 0.0711432 -0.10877137 -0.2523148
000190 76 cc 8f be 59 66 4c 3e e9 ea 66 be 45 55 de 3d
       -0.2808568 0.19960918 -0.22550549 0.108561076
0001a0 18 fc 75 be ab f6 93 be c6 fc 2b be 5c 14 e4 bd
       -0.24021947 -0.2889913 -0.16795644 -0.11136696
0001b0 b3 42 ba be ca 05 a4 be 9e e2 21 be e4 de dd be
       -0.36379012 -0.32035667 -0.15809104 -0.43334115
0001c0 a8 2f c3 be 9a 45 82 be ce b7 a9 be 4c ff 9f be
       -0.38122296 -0.25443727 -0.33148044 -0.31249464
0001d0 10 aa bd be aa a1 c3 bd d0 c5 74 3d 1c 79 c8 bc
       -0.3704381 -0.09552319 0.05975896 -0.024471812
0001e0 10 35 75 bc 72 55 31 3d 06 81 94 bd ed 75 55 bd
       -0.014966264 0.043294378 -0.07251172 -0.052114416
0001f0 c5 a1 7c bd 0f 08 ac bd 62 b1 90 bd b8 00 af 3d
       -0.061677713 -0.083999746 -0.07065083 0.08545059
000200 ca f6 b9 3d b3 46 b7 3c c0 c1 3c 3d 8c bb c6 3c
       0.090802744 0.02237258 0.046083212 0.024259351
000210 a4 4c 84 3d e8 46 23 3d 99 50 b4 3d 4f 85 c7 bc
       0.064599305 0.039862543 0.08804435 -0.024355559
000220 ba 9a 70 bd e3 4f 1f 3d 3b 88 18 bd f8 9b ac 3d
       -0.05874131 0.038894545 -0.037239294 0.08428186
000230 98 92 72 3d 0b 38 b8 bc 56 a4 9a bd 60 e8 95 bd
       0.059221834 -0.02248766 -0.07550876 -0.07319713
000240 0f 41 96 be 0e 9a 04 3e 1b 95 c2 be 2d b6 b5 bd
       -0.2934651 0.12949392 -0.38004383 -0.08872638
000250 86 0a 96 3e 37 1e cf be 35 f0 88 bd 8e 0c cf be
       0.29304904 -0.4045274 -0.06686441 -0.40439266
000260 00 41 6e be c9 02 9c 3c e3 c4 42 bd 7a 64 2d bd
       -0.23266983 0.019044297 -0.047551047 -0.04233215
000270 4d 2d b1 3d 00 91 64 bd 74 ff 7f bd 03 ff a7 bd
       0.086512186 -0.055802345 -0.06249948 -0.082029365
000280 76 d8 dc bc ea 5b 68 bd b6 cf ce bc a3 95 c9 bd
       -0.026958685 -0.05672828 -0.025245529 -0.09842994
000290 e7 f3 b3 3d 04 ac aa bd 21 95 ad 3d aa 6b 03 3d
       0.08786755 -0.083335906 0.0847571 0.0320851
0002a0 c7 81 44 bd 01 3f ff bc a6 46 b2 3d 33 6c c7 bd
       -0.047975328 -0.031157972 0.08704881 -0.09737434
0002b0 73 92 c2 bc 11 5d c4 3d ca 0e c8 bd d2 7e ac bd
       -0.023751473 0.095880635 -0.09768446 -0.084226266
0002c0 ca cf 10 3d 62 ad cf 3c ee 1f cb 3d b9 1a 62 bd
       0.035354413 0.02535123 0.099181995 -0.055201266
0002d0 61 e2 69 be 60 26 80 be 34 00 57 be c1 51 e2 be
       -0.22840263 -0.25029278 -0.20996171 -0.44202998
0002e0 39 e4 3b be 78 c3 02 be 45 ba bf be bc e2 85 be
       -0.18348779 -0.12769878 -0.374468 -0.26149547
0002f0 ca 47 95 be 89 f3 9a bc fc 20 a1 bd 00 2d d0 bd
       -0.29156333 -0.018914955 -0.078676194 -0.10164833
000300 fb 1a 48 bd d3 62 82 bd c3 c4 f2 bc c5 26 c9 bd
       -0.048853856 -0.063665055 -0.029634839 -0.09821848
000310 79 84 15 bd 3b 1d 9c bd d6 31 a1 bd 8b 79 c7 bd
       -0.03650329 -0.07622763 -0.078708336 -0.09739979
000320 75 76 b5 bd 41 6d 84 bd 84 83 76 bd 91 de 27 bd
       -0.088604845 -0.06466151 -0.060184017 -0.04098374
000330 e5 5e b5 bc a2 8a 20 bd e2 f5 87 3d a1 a1 04 3d
       -0.022139976 -0.03919471 0.06638695 0.032380704
000340 3b a9 c6 3d 8a 6a b5 bc 1d ea 87 3d 26 f7 7f 3d
       0.09700247 -0.022145528 0.066364504 0.06249156
000350 20 d7 a8 bd 48 14 d8 bc 8f f3 cb bd 1a a5 b2 bd
       -0.08244157 -0.026376858 -0.099585645 -0.08722897
000360 d7 b2 7b 3d c5 7c 99 bd 20 df aa bd e6 78 92 bd
       0.06144985 -0.07494501 -0.08343339 -0.07151966
000370 6b 75 36 bd 99 31 81 bd 38 ac 21 bd d5 d2 9d bc
       -0.044545572 -0.06308288 -0.03947088 -0.019265572
000380 8b 27 3a bd fc 56 a1 be 31 0c bf bd 88 9a f4 bc
       -0.045447867 -0.31511676 -0.09328497 -0.029858842
000390 cb 1b dd bd 9c 9e b6 bd 82 4e a1 bd 55 64 12 bd
       -0.10796317 -0.08916971 -0.07876302 -0.035740215
0003a0 08 51 f4 bd 2e 89 eb bd dc be a3 be 6f 10 59 be
       -0.11929518 -0.11500774 -0.31981552 -0.21197675
0003b0 bc 19 6f be d0 28 ae be a0 1c 6e 3e 08 be 06 3e
       -0.2334966 -0.34015512 0.23253107 0.13158429
0003c0 25 e5 9e be 31 87 49 be 50 a2 4b 3e af cf 91 bd
       -0.31034198 -0.19680478 0.19886136 -0.071196906
0003d0 fc b0 25 3c ba 1f 8a 3e 99 fa 9a bd 2e 3a 0b bc
       0.010112997 0.2697733 -0.07567329 -0.008497758
0003e0 40 f9 04 3e 85 99 af bd 31 0e da 3c 1a 58 63 3e
       0.12985706 -0.085742034 0.026618095 0.22201577
0003f0 4c 18 ea 3c 9a 7e 21 3d 27 40 85 bd 3c d8 39 bd
       0.028576039 0.039427377 -0.06506377 -0.045372233

bias f4 [64]
000000 87 29 54 bd c4 94 ea 3c 6b 83 1a bd fb 13 9d be
       -0.051797416 0.02863539 -0.037722986 -0.30679306
000010 65 1e 4c bd e7 cd 3c 3f 2d 6b 92 3f ea 1d 29 bd
       -0.049833674 0.7375168 1.1438957 -0.041288294
000020 04 31 25 bd f6 b7 3e bc bb e3 08 bd ea e6 09 3f
       -0.040329948 -0.011640539 -0.033420306 0.5386797
000030 69 08 14 3f c2 1b f0 be 6d a1 fe bc 50 53 af bc
       0.5782533 -0.46896178 -0.031082833 -0.021402031
000040 b5 13 22 bd cc 6b a4 bd e6 fd 20 bc 50 30 41 3f
       -0.039569575 -0.08028373 -0.009826159 0.75464344
000050 5f 4f 63 bc ca fa 84 be cb 1c f0 bd 50 59 38 3e
       -0.013873904 -0.25972587 -0.11724242 0.1800282
000060 72 1a 2e bd 1f 61 84 bd 29 37 78 bd 4b b0 53 bd
       -0.04250569 -0.06463837 -0.06059948 -0.051681798
000070 7a d4 d4 bd ba 9e 84 bd f0 62 ac bd 61 a3 f5 3d
       -0.10392089 -0.06475587 -0.08417308 0.11994053
000080 a0 ea ac bd 3a 66 64 bd c6 81 3c 3f 09 08 22 3f
       -0.08443189 -0.055761553 0.7363552 0.6329351
000090 cd 82 d1 3e 60 42 be bd 43 24 c0 bb 65 76 80 bd
       0.40920106 -0.09290004 -0.0058636977 -0.06272582
0000a0 c2 8c 44 bd e2 aa 37 be 10 4f dc bc 90 c0 74 bd
       -0.0479858 -0.1793628 -0.026893169 -0.059753954
0000b0 5a c8 a6 bd 0c 55 ae bd e4 ed 09 bd e0 1b b4 be
       -0.08143683 -0.08512315 -0.033674136 -0.35177517
0000c0 29 85 d8 bc 5f bd 44 bd fa b3 5b be 40 21 46 bd
       -0.026430683 -0.04803216 -0.21455374 -0.048371553
0000d0 ce 83 02 3f 49 07 fb bd 67 de 19 bd 50 ff 83 bd
       0.5098237 -0.12257249 -0.037565615 -0.06445181
0000e0 3b 42 1d bd 50 0a 09 3f aa 66 a9 bc 01 ac d6 3d
       -0.03839324 0.5353136 -0.020678837 0.10482026
0000f0 66 4f 8a bc af 2e 90 bd 15 a5 56 bd 89 50 b1 bc
       -0.016883563 -0.07040154 -0.05240353 -0.021644847

weight f4 [64, 576]
000000 fb 26 c7 3d 92 27 16 3d 1b 01 bd 3d 4c c2 73 3d
       0.09724232 0.03665883 0.092287265 0.059511468
000010 85 e8 b9 3d 94 d0 b1 3d a0 2b 00 3d f9 6a 0a 3c
       0.09077553 0.08682361 0.031291604 0.008448356
000020 11 0d 26 bc a6 46 7a be 2b 9d a1 3d 70 23 d8 3e
       -0.010134951 -0.24441013 0.078913055 0.42214537
000030 75 c8 46 3d 3e 82 c7 bd 75 37 f4 bd f2 4f c2 3d
       0.048531014 -0.097416386 -0.1192464 0.094879046
000040 eb c9 29 be 6d ee d5 bd ac 14 9f bd 4b 50 80 bd
       -0.16580932 -0.10445867 -0.07767615 -0.06265315
000050 d0 6a eb bc 69 79 83 bd e5 58 94 bd 55 90 a9 bc
       -0.028737456 -0.064196415 -0.07243518 -0.020698706
000060 79 fd d1 bd e8 ab c2 bd c0 38 4c bb 90 66 84 bd
       -0.10253424 -0.09505445 -0.0031161755 -0.06464875
000070 0f 70 af bd 22 bc 33 bd 9f 9c bc bd 16 66 cf bd
       -0.08566295 -0.04388059 -0.092095606 -0.10126893
000080 87 83 10 3c ed 90 86 bd 17 f8 f8 bc 18 4f bf 3d
       0.008820421 -0.06570611 -0.030391736 0.09341258
000090 bd 22 1b bd 69 de 30 bd 84 d8 a0 bd 89 04 ba bd
       -0.037874926 -0.043180857 -0.07853797 -0.09082896
0000a0 ff 92 72 bd 1d f8 84 bd d9 2c ab bb f9 4f 26 bd
       -0.059222218 -0.06492636 -0.005223852 -0.04060361
0000b0 7b 23 c6 bd e2 96 48 be c5 1e 15 3d da f0 0a 3f
       -0.09674736 -0.19588807 0.036406297 0.5427376
0000c0 84 00 64 bd eb ba 58 be 5f ed 57 3e ae e4 e3 bd
       -0.055664554 -0.21165054 0.21086644 -0.111276016
0000d0 c4 fe 2c bd 96 f8 89 3c b6 d4 e8 3b 8d 77 bf 3d
       -0.04223515 0.016842168 0.0071054352 0.093489744
0000e0 b2 12 5e 3e d1 66 ab 3d cc f9 ad 3d db ce 1a 3b
       0.21686819 0.0836922 0.084949106 0.002362183
0000f0 4a 5f 24 be c8 b5 c5 bd c4 b4 3e bd 6e ac aa bd
       -0.16051975 -0.09653813 -0.04655911 -0.083336696
000100 c8 fc 9a bd 3e 31 51 bd 6e d5 fd bc d4 42 50 bc
       -0.075677454 -0.05107235 -0.03098556 -0.012711246
000110 2d 83 7d bc fc 68 3b bd 78 80 28 bd d2 fc c7 bc
       -0.015473169 -0.045754418 -0.041138142 -0.024412546
000120 b2 6e 59 bc 8c 82 4e 3d fe 21 89 3d c7 fb 95 3d
       -0.013271021 0.050417468 0.066959366 0.07323413
000130 a8 92 c4 3c 57 0b 77 3d ea 77 70 3d cf 7a 73 3d
       0.023995712 0.06031355 0.05870811 0.05944329
000140 5b a7 04 3d 3a d6 25 bd 1d 4f 58 bd 72 7c 95 bc
       0.032386165 -0.040487505 -0.052809823 -0.018247817
000150 56 0d a9 bc 57 d1 7a bd ed b8 e5 bc b1 0d a9 bc
       -0.020636242 -0.0612348 -0.028042281 -0.020636411
000160 31 a5 86 bd 26 16 89 bd ea 1a 3b bc 5e ab a9 bd
       -0.065744765 -0.066936776 -0.011419991 -0.08284639
000170 73 b2 8f bd 25 6e 47 bd a4 d1 46 bd 51 1e bc bc
       -0.07016458 -0.048689026 -0.048539773 -0.022963675
000180 cb 5b af bd 23 b6 35 bd b8 59 63 bd 78 93 b8 bd
       -0.0856243 -0.044363152 -0.055505484 -0.090125024
000190 ab 63 c7 3d 01 66 06 3e b7 4d a5 bd 42 04 e8 3d
       0.09735807 0.13124849 -0.080714636 0.11328937
0001a0 8c 03 06 be dc 61 50 be bd 6c de 3d f4 16 ac bd
       -0.1308729 -0.2034983 0.10860584 -0.084028155
0001b0 d8 72 bf 3d 02 d3 91 be 1c 35 6d bd 60 6d e1 3d
       0.093480766 -0.284813 -0.057911977 0.1100719
0001c0 36 ac bb bd 62 a5 8f 3d d3 6f cd bc 46 5e 4a be
       -0.09163706 0.07013966 -0.025077736 -0.19762525
0001d0 cb f2 24 3e 4b 39 a0 be 96 32 e8 3e 99 63 03 3f
       0.16108243 -0.3129371 0.45351094 0.5132385
0001e0 73 65 c7 3e 5c f5 c2 3e 9d af f3 3e c0 55 d4 be
       0.38944587 0.3807782 0.4759492 -0.41471672
0001f0 12 eb 4c be bb e4 2b bd 18 a2 51 bc 76 c8 8b bd
       -0.20011547 -0.04196618 -0.012794994 -0.06825344
000200 00 5a 4d bd 82 ae 85 bd bd 2b 69 bd 26 8e 53 3c
       -0.05013466 -0.06527425 -0.056926478 0.012912309
000210 f5 01 96 bd e3 5c 8c bd 87 5f 2f 3d 5d 14 aa 3c
       -0.07324592 -0.06853654 0.04281571 0.020761663
000220 97 4d a2 3d b9 0a 7e 3d 44 83 f5 3d b9 2c cb 3d
       0.07924955 0.062021945 0.119879276 0.099206395
000230 67 f6 66 3d 37 bf dd 3d cb ca c1 3d d3 39 2f 3b
       0.05638733 0.10827487 0.09462508 0.0026737347
000240 cb a9 9b 3d 4d 12 0f 3d f1 db cc 3d 08 da 9c 3d
       0.07600745 0.034929562 0.10002888 0.07658774
000250 68 2b 75 3d ba c6 9c 3d ee 40 ab 3d 32 5a 1d 3d
       0.05985585 0.076550916 0.08361994 0.038416095
000260 7a 7a cc 3c 2c 1c a3 3d 26 38 85 3d 0d 50 92 3d
       0.024960745 0.07964358 0.0650485 0.07144175
000270 a7 86 04 3d 28 5b 97 3d a5 39 0d 3d 86 97 99 3c
       0.032354977 0.073904335 0.034478802 0.01874901
000280 d1 82 83 bd 69 26 1f 3d 06 f1 a6 bd 86 06 c5 bc
       -0.064214356 0.03885499 -0.0815144 -0.024050962
000290 f7 83 c3 bd 49 1d 14 bd 68 2c 03 bc 04 14 94 bc
       -0.09546655 -0.03616074 -0.008006193 -0.01807595
0002a0 dc 61 17 bd ee 33 b2 bd 03 2d 52 bd 58 fb 72 bc
       -0.03695856 -0.08701311 -0.051312458 -0.014830433
0002b0 c8 03 85 be 5f a1 f6 bd a6 c2 a4 3d f8 09 09 3b
       -0.25979447 -0.12042498 0.08044939 0.0020910483
0002c0 9a 8f 05 3e 57 85 2f 3a 36 5c 43 bd 2d cf f9 3d
       0.13043061 0.00066955894 -0.04769536 0.12197719
0002d0 03 85 81 bd 8c ef ea bc fb bc 00 bd f8 d5 ae bd
       -0.06324198 -0.028678678 -0.031430226 -0.08536905
0002e0 42 22 c2 bd 51 bc 07 bd 52 b4 56 bd 71 4e 2d bd
       -0.094791904 -0.033138577 -0.05241806 -0.042311136
0002f0 32 13 1b bc 33 12 ae 3b a0 ee 01 be c9 dd ad be
       -0.009465026 0.005312228 -0.12688684 -0.3395827
000300 48 a6 3a bd 6c 11 40 3e 5f 5c 91 3d b1 8c ee 3d
       -0.045568734 0.18756646 0.070976965 0.116479285
000310 63 47 3d bc bd 4e 8e be e5 1e 96 3d 9c b4 91 3d
       -0.011552664 -0.27794448 0.073301114 0.07114527
000320 4b 89 d2 bb 00 c5 57 b9 44 15 1c bd f9 14 18 bd
       -0.006425058 -0.00020577386 -0.038106218 -0.037129376
000330 f9 01 3d 3d 16 57 da 3c b0 12 e3 bd f4 01 5e be
       0.04614446 0.026652854 -0.11087549 -0.21680433
000340 f2 71 1d 3c 1d 66 c8 3d 52 0c 5d bc d2 1b c4 3d
       0.009609686 0.097851016 -0.013491707 0.09575619
000350 05 88 fe bc 37 0a 0e be bf 66 72 3d dc 07 d3 bd
       -0.031070719 -0.13871084 0.059180018 -0.103042334
000360 14 fe 22 bd c2 03 be ba 5a 6b d5 3c 62 36 5b bd
       -0.03979309 -0.001449697 0.026052166 -0.05351866
000370 00 42 94 3d b1 93 d0 3c c0 6d c5 3c b8 23 65 3d
       0.07239151 0.02546105 0.024100184 0.055942267
000380 d4 c9 86 3d 53 69 0a bd 0f 07 fa bc 08 49 b7 bc
       0.065814644 -0.03379185 -0.030520944 -0.022373691
000390 a3 b4 58 bd a9 27 da bc d4 96 60 bd e0 cb 87 bd
       -0.052906644 -0.02663024 -0.05483134 -0.06630683
0003a0 c9 18 ce bb 1e 37 60 bd 2b 9a fe bc d5 37 90 bd
       -0.0062895757 -0.054740064 -0.031079372 -0.07041899
0003b0 93 06 a0 bc 8d 13 67 bd 30 50 89 bc ce e4 c9 bb
       -0.019534385 -0.05641513 -0.01676187 -0.006161309
0003c0 d5 30 83 bd 89 58 e2 bc dc a2 c0 bb 05 7a 96 3d
       -0.06405798 -0.027630107 -0.0058787894 0.07347492
0003d0 8c 87 00 3d 91 13 e5 bb ec a2 70 3d b6 b4 48 3d
       0.031379268 -0.006990858 0.058749124 0.049000464
0003e0 d8 4e 48 3c e2 61 3a 3d d2 bc 80 3c c6 95 65 3d
       0.012225829 0.045503505 0.015715037 0.05605104
0003f0 90 06 54 3d cb f6 ca 3d 83 85 9d 3d a2 d0 89 3d
       0.05176407 0.09910353 0.07691481 0.06729247

bias f4 [64]
000000 10 b6 64 be 29 00 87 be 89 b2 d5 3d ea 2e 77 be
       -0.22335076 -0.2636731 0.104344435 -0.2413899
000010 0c 53 43 3f 48 30 2c bd 4d 73 6a be a8 b2 65 bf
       0.76298594 -0.042038232 -0.22895546 -0.8972573
000020 cf db 37 be 54 22 11 3f fe 49 81 3d de ec d4 bd
       -0.17954944 0.56693006 0.06312941 -0.10396741
000030 61 a8 44 3d 0f 52 ee be 76 1e 0c 3f c6 7a 24 bf
       0.04801214 -0.4654698 0.5473398 -0.6424984
000040 58 d8 20 3d 06 ff 44 bf 22 5d c1 be 27 d3 a1 3e
       0.03926882 -0.76951635 -0.37766367 0.3160641
000050 63 1c 68 3e 4f 3d ec bd fc 9d 21 be b4 63 17 be
       0.22667079 -0.11535131 -0.15782923 -0.14784127
000060 28 15 82 3e 31 64 03 be bd 03 0e 3f 83 1d 95 3e
       0.25406766 -0.12831189 0.55474454 0.29124078
000070 47 62 47 3f 6b f8 fe 3e 82 2a b8 bd a0 3c 8a bd
       0.77884334 0.49798903 -0.08992483 -0.067498446
000080 c1 b4 ec 3a 5f 13 06 3d dc 5c 2f 3f 5a 5a 02 bf
       0.001805924 0.032733317 0.6850107 -0.50919116
000090 f4 01 db 3d f6 8d 8b 3e 88 ef 6b 3d 95 01 ef be
       0.10693732 0.27256745 0.05760148 -0.46680894
0000a0 d4 20 e1 3c fe 9f 0b bf 03 4f 67 be b7 cf 36 bc
       0.027481474 -0.54541004 -0.22588734 -0.0111579215
0000b0 7a 96 39 3e 73 b7 25 3d f8 2a f6 be 13 56 09 3f
       0.18123809 0.040458154 -0.48079658 0.53646964
0000c0 a2 21 25 3f ac 66 0d 3f 36 9d 4c bf 93 b4 14 3f
       0.64504445 0.5523479 -0.79927385 0.58088034
0000d0 48 91 6a 3e 0d d8 88 3d d5 e5 7e be d7 31 99 3e
       0.22906983 0.066818334 -0.24892361 0.29920837
0000e0 05 64 35 bf 48 a1 53 bf 4c df c2 3e ab e9 18 3f
       -0.7085574 -0.8266797 0.38060987 0.5973155
0000f0 00 2f 00 3f 43 c6 e6 be 74 a4 62 3f a8 73 8d 3e
       0.50071716 -0.45073137 0.88532186 0.276273

weight f4 [10, 64]
000000 cf 5f 8e 3d 29 fb 8c 3d 9b 13 f5 bd b5 88 b8 bd
       0.06951868 0.068838425 -0.1196663 -0.0901045
000010 c3 14 44 bd 98 d4 73 bc af da c8 bd d0 47 b3 3d
       -0.047871362 -0.014882229 -0.098073356 0.087539315
000020 e8 4f 69 bc 49 45 f5 bc 46 96 4c bd 27 65 aa bc
       -0.014240243 -0.029940264 -0.049948 -0.020800186
000030 f2 83 18 3e b1 cb 8d 3d 23 8b 41 3e 88 8f 82 be
       0.14894083 0.06923617 0.18900733 -0.2550013
000040 e8 b9 7a 3d 74 5e 00 be cd 15 aa 3c eb a5 1c bd
       0.06121245 -0.12536031 0.020762349 -0.03824417
000050 7b f9 48 bd fb ed 8c 3d d8 f3 79 3d cc 1c 45 3d
       -0.049066048 0.06881329 0.061023563 0.048123166
000060 08 ce de 3b 40 34 43 3d 34 b1 b2 bd 15 b6 10 3e
       0.006799463 0.04765725 -0.08725205 0.14131959
000070 32 c3 87 bc db 62 15 bc 85 92 a1 3d 56 5a 98 3d
       -0.016572569 -0.009117807 0.078892745 0.07439105
000080 e1 01 56 3d b3 cb 53 3d a1 b9 f1 3d af fa 19 3d
       0.052247886 0.051707935 0.11802984 0.037592586
000090 9f c0 92 bd 56 56 02 bd c6 0c 0d 3d ee d5 73 bd
       -0.07165646 -0.031820618 0.03443601 -0.05953019
0000a0 08 14 b4 bd 48 37 14 3d fe e9 04 3e 1b 45 ca bc
       -0.08792883 0.036185533 0.12979886 -0.024691155
0000b0 c6 ee 3d bd c7 2c 33 3d 90 73 c1 3c 2c d6 62 bd
       -0.04637029 0.043743875 0.023614675 -0.05538003
0000c0 40 3e 87 bd f1 29 e0 bd d7 14 04 bc 38 d9 5e 3e
       -0.0660367 -0.109455 -0.008061609 0.2176255
0000d0 70 08 7e 3d 48 7b 36 3c 6b 21 ee bd e4 95 b3 3c
       0.062019765 0.011137791 -0.11627468 0.02192206
0000e0 f5 ed 10 3d d4 04 f5 bc 9a 7e 83 3d b0 82 89 3d
       0.035383184 -0.029909529 0.06420632 0.0671438
0000f0 83 37 2f bd e7 49 38 bd 9d 01 12 bd 57 ca 12 3e
       -0.04277755 -0.044992354 -0.03564607 0.14334999
000100 ec 92 a8 bd 40 a0 f0 bd 3f 49 05 3d 31 a2 e1 3c
       -0.08231148 -0.11749315 0.032540556 0.02754316
000110 93 75 52 3d 45 9d 14 bb d7 26 ef 3c 5d c5 8a bd
       0.05138166 -0.0022676748 0.029193325 -0.06775925
000120 f0 cf 5c bd a9 60 08 be 28 3d 96 3d d5 b0 b0 3d
       -0.053909242 -0.13318123 0.073358834 0.08627478
000130 0c 9f e9 3c e4 86 cb bd ca f2 8a bd 90 d4 8e 3b
       0.028518222 -0.09937838 -0.067845896 0.0043588355
000140 a0 ca 22 bd e0 d1 92 bd 99 ad 01 3d cb d5 d9 3d
       -0.03974402 -0.07168937 0.031659696 0.10636481
000150 dd ff c4 3c 27 7f 7f bd 92 78 d6 bd fc b7 bb bd
       0.024047786 -0.06237712 -0.10472216 -0.091659516
000160 dd d3 0f 3d 66 95 9e bd e2 f5 d7 3c ff 0c df bc
       0.035114158 -0.07743339 0.026362363 -0.027227877
000170 24 12 b6 3d 92 12 f4 3d d8 24 17 3c 95 b6 5e bd
       0.08890179 0.119176045 0.009225093 -0.054373343
000180 7b bf 95 bd fa b6 67 3d 48 70 d6 bd 65 a9 b2 bd
       -0.073119126 0.056570984 -0.10470635 -0.08723716
000190 66 9b 5a 3d b5 52 44 bd 87 90 15 3b 76 56 ce bd
       0.053370856 -0.047930438 0.002282174 -0.10075085
0001a0 e5 4e 69 3d e9 90 af bd cc f3 ee bc cb c9 35 3d
       0.056960005 -0.08572561 -0.029168986 0.044381898
0001b0 63 f9 23 3d 69 87 7f bd 30 5e c5 bd 79 f4 5b bc
       0.040032756 -0.062384997 -0.096371055 -0.013424986
0001c0 a4 25 52 3c 1e 24 46 3d e9 63 d0 bd 7b bc 33 3d
       0.012826357 0.048374288 -0.10175306 0.04388092
0001d0 5a 14 9c bd a9 fa c0 bc dc 5f c5 bd fe 37 11 bd
       -0.07621069 -0.023557024 -0.09637424 -0.03545379
0001e0 cd d5 5c bb 1e 30 51 bd 72 a2 7e 3d 66 fd a9 3d
       -0.003369677 -0.05107128 0.06216664 0.08300285
0001f0 76 0f f0 3d d5 82 a9 3d 5c 64 25 3e 74 8f 02 bd
       0.11721699 0.08276907 0.16151565 -0.03187509
000200 b8 be 85 3d 77 94 63 3d 64 cf 2c bd c5 af 2a be
       0.06530517 0.05556151 -0.04218997 -0.16668613
000210 8e 5c d1 3c 0c 5f f0 3d 1b e4 dc bd 41 8e de bd
       0.025556829 0.11736879 -0.10785695 -0.108669765
000220 e4 69 e8 3c 14 98 2c bd cd f5 d7 bc d2 d6 1b bd
       0.028370805 -0.04213722 -0.026362324 -0.038046665
000230 ff c5 db 3d 2c 89 5f 3d b4 eb ab bd d3 ba ba 3c
       0.10731124 0.054574177 -0.08394566 0.022794163
000240 14 67 a7 bd d0 ab 78 3d 00 34 e0 3d c0 4a 0f bd
       -0.081739575 0.06071073 0.10947418 -0.034983397
000250 19 7d 25 bd e8 94 80 bd 9a 74 d6 bd 5e 2d 5a bd
       -0.040402506 -0.062784016 -0.10471459 -0.05326592
000260 ca e4 35 3d 1d c9 8d bd ac 46 48 3d b5 b8 16 bd
       0.044407643 -0.06923125 0.048895523 -0.036797244
000270 68 4c 41 bd a7 00 fb bb c5 22 97 3d 2f 6c 86 bd
       -0.047192007 -0.00765999 0.07379679 -0.06563603
000280 b3 7f 4b 3d a3 01 45 bd 3c 83 f6 bd 85 c2 66 3d
       0.04968233 -0.048097264 -0.1203675 0.056337852
000290 ed 0f 75 3d 5f 29 99 bc 34 90 08 bd c2 0b 9c bd
       0.05982964 -0.018696485 -0.033340648 -0.0761943
0002a0 af 69 04 3d 08 d0 6a 3d c5 6e c5 bc e6 7d 72 bd
       0.03232735 0.0573273 -0.02410067 -0.059202097
0002b0 6c bc 88 bd 37 a2 22 bd 2e 05 22 3d 43 aa 81 3b
       -0.066765636 -0.03970548 0.03955572 0.0039570644
0002c0 c0 dc d8 3c 7d e1 d1 bd bc 93 1a bb b4 c2 11 bd
       0.02647245 -0.102480866 -0.0023586592 -0.035586074
0002d0 dc d0 46 bd 9b 29 8e 3c d8 0d b4 bd 7a 86 39 3c
       -0.048539028 0.017353823 -0.08791703 0.011323566
0002e0 b0 66 79 bc 95 26 d7 3d 8a b5 01 bd 66 ed 83 3d
       -0.0152222365 0.10505406 -0.03166727 0.064417645
0002f0 7f 99 db bc 86 8a 03 bd 17 03 0c bd f4 79 16 bd
       -0.026806591 -0.032114528 -0.034182634 -0.036737397
000300 f8 5d 1b 3d d6 cc 9f 3d 68 f4 41 bd 92 d9 26 3d
       0.037931412 0.07802741 -0.047352225 0.040734835
000310 52 77 9d bd de eb 3e bd 50 18 df 3c 24 ee a2 3d
       -0.07688774 -0.04661166 0.027233273 0.07955578
000320 9f b8 04 3d 73 02 1a be 29 e7 de bc 5b 49 db 3d
       0.03240263 -0.15039997 -0.027209835 0.10707351
000330 70 e8 e4 3d f6 23 86 3d 2b 13 75 bd 26 fe 5b bb
       0.111771464 0.06549828 -0.059832733 -0.0033568232
000340 c6 1c ac bd f8 86 78 3d e8 72 36 3a 69 76 c1 bb
       -0.084039256 0.06067559 0.00069598714 -0.005904008
000350 d1 0f 86 bd c5 d4 58 bd cd 45 cf bd e5 0e 81 bd
       -0.065459855 -0.052937288 -0.10120735 -0.06301669
000360 0c 1a 9e bd c4 ca c0 bd 3f 50 b6 bd c6 ee ed bc
       -0.07719812 -0.094136745 -0.089020245 -0.02904452
000370 eb bc ff bc 0b 5c 98 bc 01 03 aa 3d 01 cf 71 bd
       -0.031218013 -0.018598577 0.08301354 -0.059035305
000380 d6 a7 7a bd ba 16 ad 3d b5 4f f7 bd ff cf 04 3d
       -0.061195217 0.084516004 -0.1207575 0.032424923
000390 f9 d9 44 3d 89 f8 25 be a9 0a 03 3c ed 49 d7 3c
       0.048059437 -0.1620809 0.007998147 0.026280368
0003a0 cb c9 ff 3c 86 bd 80 3d 60 e7 04 bd 72 e6 80 3d
       0.031224152 0.06286149 -0.03244722 0.06293954
0003b0 d9 e5 76 3d ed e9 87 bd 8b c2 e8 3c 2b a1 cc bd
       0.060277794 -0.06636415 0.028413078 -0.09991678
0003c0 ca a5 65 bd 7c 52 93 bd d9 4c b5 3c c2 60 39 bd
       -0.056066312 -0.07193467 0.02213137 -0.04525829
0003d0 92 91 ad bd c4 bd b5 bc 73 57 da bd 85 a1 9b 3b
       -0.08475031 -0.022185214 -0.10661211 0.0047494792
0003e0 c6 da ea 3d e0 c5 ac 3d 62 73 27 bd d0 76 9f bd
       0.11467509 0.08436179 -0.040881522 -0.077863336
0003f0 71 9c 45 bd c8 3b b5 3d fd d5 0c bd ed f8 04 bd
       -0.048244897 0.08849293 -0.034383763 -0.032463957

bias f4 [10]
000000 26 41 39 3f c0 b6 a8 3f a1 e7 97 3d a3 4a 85 bf
       0.72365034 1.3180771 0.074172266 -1.0413402
000010 b1 34 7e be 1a 9e 14 bd d3 92 97 bd 8c 62 8a 3e
       -0.24824788 -0.03628359 -0.07401051 0.2702831
000020 49 72 88 be 3f d3 5f 3c
       -0.26649693 0.013661205
