Digit-recognition/model_3.pt (torch_old, 437328 bytes, 14 tensors)

weight f4 [8, 1, 7, 7]
00000000: d0f0 583d 72ae 2f3d f0b5 b5bc 126f a1bc
00000010: ae42 f7bc c5fa 893d 9c6f 503d 5235 433c
00000020: 5ab4 89bd cc29 8cbd d216 a73c 3649 dabd
00000030: bae1 3bbb ce1e 24bd 60cf 47be ca77 103d
00000040: 3e0e c53d 315d 773b 8b9a eebd 9f94 4a3d
00000050: 955a 14be bb32 e33d 8d3a 393e 6785 f93d
00000060: 01f7 b6bd 8582 97be 6995 0ebd f0cc ddbd
00000070: 36de 7f3e 5012 203d f06c 943e dd7c cbbe
00000080: 27bb 57be 1624 15bc 7798 adbc 8c1a 323e
00000090: 0d3f 0f3e 3720 453e 893e 9cbe eda7 21be
000000a0: f77b 30bd 4351 b63d fc2c b5ba 9fb1 e83d
000000b0: 46d3 323e 36a8 003e 3b02 37be 127f 0c3c
000000c0: 3b85 4bbe b9b6 e2bb a6bb a93c 49b8 c5bc
000000d0: b31c 36bc 987f 473c bf03 0e3d 2c50 31be
000000e0: 99eb 2cbd 7c05 e8bc 2323 8d3c 99d1 653c
000000f0: 0575 05be 730c 2abd e342 0dbe d7c3 6abd
00000100: 9c47 973c 4284 8b3d 07f5 b4be 44f0 1dbe
00000110: 0a37 d33d 39c5 393a e3c5 bd3d 8889 02be
00000120: 28a1 9abd 0d3d 663e 6a26 7a3e dd6e 5b3e
00000130: 6a7e ecbc 4eb9 d83d 1169 e7bc 74a4 3b3e
00000140: 1911 4b3e 84b7 c13e e25b ea3c fd5e 5ebd
00000150: db09 4d3c 356b 893d 988f 5cbd 61f9 8e3d
00000160: 3d52 e03d 9a7d afbc 1ae4 443d 725b ebbd
00000170: 3ff9 14be b391 b7bd 7e4a 90be b662 e5be
00000180: 8093 79be 2ea8 84bd 4c6c 5abd e314 853d
00000190: 82fe 2c3d 02e9 57bd 05c4 51bd 1921 52be
000001a0: f22c 87be b6c4 b73d 9e4c 0a3e 07cd 0bbe
000001b0: cf8d 1ebe 2e73 0abf f10d 73bf 1aa6 6cbf
000001c0: 400a c23d 43ed 463e a757 2ebe 0ad9 82bd
000001d0: 3267 b8be a711 1abe 28c2 36c0 d508 75bd
000001e0: 9585 dfbd 7168 aa3d 4dce 7f3e 626c ef3e
000001f0: 230b 503d a27c 45c0 de89 453d 64ac 96be
00000200: ae61 823d 063d 8cbc f22b 4bbd 2200 153e
00000210: cf76 bdbf 89d1 183d 3b46 0ebd 3a4d 0abf
00000220: 0161 ddbe 01fe f7bd b079 21c0 7c9d 79bd
00000230: b1a1 6fbe 29eb 863c 1669 9abe 81c5 a1bf
00000240: d772 4ebf 1ac1 21bd d761 78be 7920 2e3d
00000250: 9475 f93c 76cb d8bc 2d0f bfbb 072e 48be
00000260: 58a3 bcbe 0b18 1fbe a57f 22bd f821 553c
00000270: 3839 173c c65b 2d3e e8b2 b93e 0433 3abe
00000280: 8fd4 a7bd 34b4 a3bd 7c02 223d 1d9b 0fbe
00000290: 4ffe 643e 3fa3 143f ad92 a23e 7021 07be
000002a0: 14bb 023c 5773 d53c b615 56be 8de4 85be
000002b0: 23d5 6d3e 5ad4 573e 8802 88bc 3cbb 16be
000002c0: acc0 6e3d 0b57 71be 0cc4 84be f79b 38be
000002d0: 557a 2dbe bd02 c43d c47f 89bd 6e73 9f3d
000002e0: 07fc 443d ada2 58be ee70 7abd bda0 e1bd
000002f0: 4585 a33c d354 883d bafc 21bd 8fcf 023e
00000300: 4278 d23d 9cb3 46bc 136b c23c d144 e6bd
00000310: c626 cabe bb99 a5be 6093 7dbe f108 f1bd
00000320: 6a14 84bd 6750 ad3b 36d5 9bbe 41c9 8bbe
00000330: 8897 0dbd f4f8 a7bf 3fab e83d bc8b 19be
00000340: 7710 40be 6cd4 12be 8419 4a3e 6a94 923e
00000350: 841f ffbf a3b2 b6bf 1b65 ecbb c657 413d
00000360: e442 1cbe d37f 8f3e b93d 83be c047 73be
00000370: 4423 67bf fc24 86be 62b2 623e de64 4abe
00000380: f760 683e d301 8ebd 3c4b 04bd 72e7 8cbe
00000390: 0e96 a3bd 97ce 1a3e e485 f2be 98f7 2f3e
000003a0: 1510 8d3b db99 c4bd 77fd 3bbd aa33 7f3e
000003b0: 0dfe 18be 4326 28bf 0a82 22bd 58ea f4bc
000003c0: 7583 02be 708c 593e 333e 203e 4d9c 5abe
000003d0: 5ec1 95be 9f3e 8abd 1f7e 37ba 1caf 2bbe
000003e0: 19c3 ecbd 03a4 3abe 7b8d f4bd 655a 1ebe
000003f0: 3ee3 913c ea33 05bc 2caf 29bd eb92 0bbe
0.05296403 0.042890973 -0.022181481 -0.019706283 -0.030183163 0.067372836 0.05088769 0.011914568
-0.067238525 -0.068439096 0.020396624 -0.10658495 -0.002866848 -0.04006844 -0.19512701 0.03527049
0.09621857 0.0037744755 -0.116505705 0.049458142 -0.1448768 0.110936604 0.18088742 0.121836476
-0.08933831 -0.29591766 -0.034810457 -0.10830104 0.2498711 0.039079964 0.28989363 -0.397437
-0.21067487 -0.009102842 -0.021190865 0.1739294 0.13988896 0.1925057 -0.3051646 -0.15786715
-0.043086972 0.08902218 -0.001382261 0.113620035 0.17463407 0.12564167 -0.17871945 0.008575218
-0.19875042 -0.006918755 0.02071936 -0.024135726 -0.011115241 0.012176417 0.03467154 -0.1731574
-0.04221687 -0.028322928 0.017228669 0.014027023 -0.1303292 -0.04151578 -0.13795047 -0.057315674
0.018466763 0.068123356 -0.3534319 -0.15423685 0.10313232 0.00070865784 0.092662595 -0.12747777
-0.07550269 0.22484227 0.24428716 0.2142901 -0.028868873 0.10582219 -0.028248342 0.18324453
0.19830741 0.37835324 0.028608266 -0.054289807 0.012514557 0.06709901 -0.05384788 0.06981159
0.10953186 -0.021422196 0.048069097 -0.11492051 -0.14548205 -0.08963337 -0.28181833 -0.44801873
-0.24372673 -0.0647739 -0.053325936 0.064981245 0.042234905 -0.052712448 -0.05121233 -0.20520438
-0.26401478 0.089730665 0.1350579 -0.1365243 -0.15483783 -0.54082 -0.9494315 -0.9244095
0.09474611 0.19426446 -0.17025624 -0.06389053 -0.36016232 -0.15045796 -2.8556004 -0.059822876
-0.109141506 0.08320702 0.24981041 0.46762377 0.05079187 -3.085732 0.048227184 -0.294284
0.06366287 -0.017118942 -0.049602456 0.14550832 -1.4801883 0.037309203 -0.034734946 -0.5402409
-0.4323807 -0.12108994 -2.5230522 -0.060941204 -0.23401524 0.016469555 -0.301583 -1.2638398
-0.8064398 -0.039490797 -0.24256073 0.042511437 0.030451573 -0.026464205 -0.0058306665 -0.19548808
-0.3684337 -0.15536515 -0.039672513 0.013008587 0.009229951 0.1692954 0.36269307 -0.18183523
-0.08194839 -0.079933554 0.03955315 -0.14024015 0.22362636 0.58061594 0.3175253 -0.13196349
0.007979173 0.026055975 -0.2090672 -0.26150933 0.23225836 0.210771 -0.01660277 -0.14719862
0.058289215 -0.2356836 -0.25930822 -0.18028246 -0.16941197 0.09570835 -0.067138225 0.07785688
0.048091915 -0.21155806 -0.061142854 -0.110169865 0.019961009 0.06656804 -0.03954766 0.1277449
0.102768436 -0.012127783 0.023732698 -0.112435944 -0.39482707 -0.3234385 -0.2476325 -0.117692836
-0.06449206 0.0052891257 -0.30436105 -0.27301982 -0.03456834 -1.312285 0.113607876 -0.1499471
-0.18756281 -0.14338845 0.19736296 0.28628856 -1.9931493 -1.4273266 -0.007214201 0.047202848
-0.15259892 0.2802721 -0.25633028 -0.23757839 -0.90288186 -0.26200092 0.2213836 -0.1976504
0.22693239 -0.06933942 -0.03229831 -0.2752033 -0.07987605 0.1511787 -0.47367775 0.17184293
0.0043048956 -0.09599658 -0.04589602 0.24922052 -0.14940663 -0.6568338 -0.039674796 -0.0298969
-0.1274546 0.21244979 0.15648727 -0.21348687 -0.2924909 -0.06750225 -0.00069996895 -0.16766018
-0.115606494 -0.18226628 -0.11941048 -0.1546417 0.017808553 -0.008130053 -0.041426823 -0.13630264

bias f4 [8]
00000000: 6484 9ebd ec3f 70bd 12a9 ce3e 0478 04be
00000010: c00b d63e 2d59 61be 7525 c0bd a751 d23d
-0.07740095 -0.05865471 0.40363365 -0.12936407 0.4180584 -0.22006674 -0.09382144 0.1026948

weight f4 [16, 8, 5, 5]
00000000: 3938 52bf 5232 a3be 8d97 52bc 050d 72bd
00000010: 237a 7dbe 070c 3dbe fb86 4ebd 7d66 623e
00000020: 9389 93bc f073 a43e 45f0 8e3e 50dd 1d3d
00000030: 975a 7fbc 0274 4cbe 08d8 903d 93e4 1abd
00000040: 91c7 6fbd b7f5 1abe 7e3c 70be f9cd d8bd
00000050: c591 b4bd 4026 043e 93fc 8f3e f614 4fbe
00000060: 74f0 a63e 3d7c 17bd d683 f3bd 428c cc3d
00000070: aca9 c83b c1d2 03be dfd2 00bf 330f 65bd
00000080: 93e6 1ebe 178b 27be 978e ffbd 16b1 0c3e
00000090: 827b aebe eae9 6fbe c702 9e3e 23b5 c8bd
000000a0: 3e3c 00bc 7737 27be c364 00be 6368 4b3e
000000b0: 0fee a2be d9a1 453e eba7 f1bd 284b 673d
000000c0: d3af 0f3e 8000 f53d 71ff abbf 60de e0bf
000000d0: f146 66bd 1dd4 9fbc 240d 18bf 5fd8 e6bf
000000e0: 49a6 1abf 134c 57be 88b0 c53e 7127 1abf
000000f0: 7913 aabf e02c f2bd 4960 87be 4577 b13e
00000100: ccbd 9bbe 1f24 ee3c 65e6 273f 7806 273f
00000110: 00f4 263f 171a 7ebe ee01 ae3e 936e 5bbf
00000120: bd34 bebe a933 6bbe 05a6 95bf 8ee4 1b3d
00000130: e2c3 f43d aec1 9abc 2622 b53c 9cf5 cb3e
00000140: 7732 0cbf f49f bcbe 4c67 ec3c e807 8f3e
00000150: 04d8 973e 9284 3bbd 613a 9abd c2ec 8bbd
00000160: ef3c 443e 655b b7bd 8479 d9bd 8d97 053a
00000170: e5c4 993d e871 cabe 0682 783e e2f1 12be
00000180: 06f2 3d3e 4705 84be 487a dc3e 3750 163e
00000190: ec2c bd3e c6a4 93bd 0779 ac3e e934 373e
000001a0: 7f40 3abe 8171 2c3d 91b7 04c0 b367 b4be
000001b0: 2747 01be 17af 95bd 5135 be3d 8f06 d0bf
000001c0: b200 26be e547 9b3c a114 54be af9a e0be
000001d0: a343 0cc0 cef9 5cbf 73ce 453e 2de8 52bc
000001e0: bfe4 05bf 74b0 a43e 49ec 483e 4aef e53e
000001f0: 7f78 9abd 1bdd f4bb a766 823e 8bbe 03bd
00000200: 28ee 1e3f e39b 07bc abe7 9fbe 8c1e 79be
00000210: a047 083e d4cd 21bc 64bc 0e3e b127 ab3d
00000220: 242c 073f 041c e2be 34cc 42bc 6f35 4e3e
00000230: 39f9 ccbe 32a4 ab3d d233 503e 0a02 4fbe
00000240: 09fe fcbd 2de3 45be b2c9 ecbd 8726 013e
00000250: e591 c23e 30a3 17bd 3e24 3e3e 7c80 f2bd
00000260: 893f 10be 255a fd3c c557 edbe 41de 18be
00000270: 6ead 54bf d839 10bf 1364 e43d a581 f4bd
00000280: 32a1 f8be 7fc6 3cbf e4c4 a0be 9365 aebc
00000290: 66fe 093d 6ef2 973c 623f 95bd c895 ee3d
000002a0: d4c0 423e 2b12 0f3d 6bdf 46be 9fce cdbc
000002b0: 49db 38be dc86 073d af43 503a d5d8 95bf
000002c0: 3c42 2ebf 1e74 a6be f498 26bf c124 303e
000002d0: cc41 43bf 141f 643e cde7 77bf 010a 33bd
000002e0: 1840 023f a47f 32bf 86a2 35be f692 7c3d
000002f0: afb5 86bf 6494 9c3e 886b 59be 3dd1 0bbe
00000300: edea 35be ad71 29be 6ef3 05bf 11b9 01bf
00000310: 014e 31be 0c99 2f3e d7fc 8f3e 63ba 1dbf
00000320: 3b79 83bd f335 ac3e 339c bc3d a083 b6bf
00000330: 096b dabe d9c1 41be bc80 26bf 3462 72bf
00000340: cc0a 3abf cf39 b2bd be87 8fbe ac0d 56be
00000350: 84e4 02be 39b1 b03e 1761 f03e 5fcf 00bf
00000360: 73da a2bd ed41 263e 079e 303e 9174 ecbc
00000370: b9ac 47be 9e65 f8be a951 b4be 92a7 9ebe
00000380: 6abc 94be 66d6 c0bd 3208 e43e 45df ca3e
00000390: 0b2b 89be baa3 3b3e 1b55 193e 482c 6cbe
000003a0: 100b 593e 408c ac3e fe2b 043e adfc 413e
000003b0: 8682 4dbe b2dd 2d3e c23a 813e c082 eb3d
000003c0: ee70 8e3e 436a 84be 4df2 483c 56d6 063e
000003d0: b5e9 7c3e 9925 663e 9b38 f6bd 9b32 8f3b
000003e0: 875c 98bd a9e5 11be b501 2c3f 8b4d 893f
000003f0: f788 c43e c3a7 853e 99a9 293f a95e ae3e
-0.8211704 -0.3187433 -0.012853515 -0.059094448 -0.24753623 -0.1846162 -0.050421696 0.22109409
-0.018009936 0.32119703 0.27917686 0.03854114 -0.015585563 -0.19966128 0.07072455 -0.03781564
-0.05853993 -0.15132795 -0.23460576 -0.10586161 -0.08816866 0.12905216 0.28122386 -0.2022284
0.32605326 -0.036983717 -0.1189038 0.099876896 0.006123742 -0.12873365 -0.50321764 -0.0559227
-0.15517645 -0.16361652 -0.12478369 0.13739428 -0.34078604 -0.23429075 0.30861494 -0.09800174
-0.007826863 -0.16329752 -0.12538438 0.19864039 -0.3182225 0.19300021 -0.11799606 0.05646816
0.14031915 0.11962986 -1.343733 -1.7567863 -0.05622 -0.019510323 -0.5939505 -1.8034781
-0.6040998 -0.21025114 0.38611245 -0.6021643 -1.3287193 -0.118249655 -0.26440647 0.34661308
-0.3041824 0.029069958 0.6558593 0.65244246 0.65216064 -0.2481464 0.33985847 -0.857156
-0.3714961 -0.22968926 -1.169129 0.038059764 0.11951424 -0.018891182 0.02211101 0.39835823
-0.54764503 -0.36840785 0.02885785 0.2793572 0.29656994 -0.045780726 -0.07530666 -0.06832267
0.1916387 -0.08952979 -0.106188804 0.000509613 0.07508258 -0.3954003 0.2426835 -0.14350083
0.18549356 -0.25785276 0.43062043 0.14679037 0.36948335 -0.072091624 0.33686087 0.17891277
-0.18188666 0.042100433 -2.073704 -0.35235366 -0.12624799 -0.07308786 0.09287513 -1.6252002
-0.16211203 0.01895518 -0.20710994 -0.43868014 -2.1916282 -0.8631867 0.19317035 -0.012872738
-0.52302164 0.32165873 0.19621386 0.44909126 -0.07542514 -0.007472647 0.25468943 -0.032164138
0.6208215 -0.008276912 -0.31231436 -0.24328059 0.13308573 -0.009875733 0.13939053 0.0835718
0.5280173 -0.44162 -0.011889506 0.20137571 -0.40033892 0.08380927 0.20332268 -0.20215622
-0.12353141 -0.19324942 -0.11561908 0.12612353 0.38001934 -0.037020862 0.18568513 -0.11840913
-0.14086737 0.030926773 -0.46356025 -0.14928533 -0.8307713 -0.5633826 0.111519 -0.1193879
-0.48560482 -0.7374038 -0.31400216 -0.021288669 0.03368988 0.018548217 -0.0728748 0.11649662
0.1901887 0.034929436 -0.19421165 -0.025122939 -0.180524 0.033087596 0.0007944656 -1.1706797
-0.68069816 -0.32510465 -0.6507714 0.1720152 -0.76272273 0.2227748 -0.96838075 -0.043710712
0.5087905 -0.69726014 -0.17737779 0.06166359 -1.0524195 0.30581963 -0.21232426 -0.13654037
-0.17765398 -0.1654727 -0.5232457 -0.50673014 -0.17314912 0.17148226 0.2812259 -0.6161253
-0.06419607 0.3363491 0.0920948 -1.4258919 -0.42659786 -0.18921603 -0.65040183 -0.94681096
-0.72672725 -0.08702432 -0.2803325 -0.20903653 -0.12782484 0.3451021 0.46949074 -0.50316423
-0.07951822 0.16236086 0.17247783 -0.028864177 -0.19499482 -0.48515028 -0.35218552 -0.3098722
-0.2905 -0.09415893 0.44537503 0.39623466 -0.26790652 0.18324175 0.14973871 -0.23063767
0.21195626 0.33700752 0.12907407 0.18944044 -0.20069322 0.16979101 0.2524014 0.11499548
0.27820534 -0.2586232 0.0122648 0.131677 0.24698527 0.2247528 -0.120225154 0.0043700463
-0.07439523 -0.14247765 0.67190105 1.0726789 0.38385746 0.26104555 0.6627441 0.34056595

bias f4 [16]
00000000: 3d30 143f 7c16 f33c 9b9b f3bd fb71 873d
00000010: db8d 873c f014 15bd 4923 683e ad0b aa3c
00000020: ef74 d63e 8b3c 5aba 4718 6e3e aac1 dfbd
00000030: bfbf 46be a5b9 3fbb 5d5b 14be 873f a1bd
0.57886106 0.029673807 -0.11894914 0.06613537 0.016547134 -0.03639692 0.2266971 0.02075752
0.41886088 -0.00083250616 0.23251449 -0.1092561 -0.19409083 -0.002925494 -0.14487977 -0.07873445

weight f4 [32, 16, 3, 3]
00000000: bdaa a13e d82a a23e b30c 6d3d 7ee7 d9be
00000010: 3709 3b3d baed 55be 5361 55be e476 5cbb
00000020: 9888 0bbe e7d5 adbd e02e 8abc f4f4 cb3e
00000030: 6b0b 68be 870d ac3e 5254 9f3d 1ea0 45be
00000040: 7e87 8abd 76b1 23be e61c 42bf 514d a83e
00000050: 534d 083f 0125 5abf 8271 26bf fb97 eabd
00000060: 92e7 b93e 6b52 8d3e b555 96bc acc6 b53e
00000070: e4bb 1e3f 8f59 6cbf 678e 4d3e 7917 793e
00000080: 7c57 843e e7d5 0cbe f687 f1bd e51d 88be
00000090: 7e99 47be 4935 9fbd bd86 253e 630b 0a3e
000000a0: 02cc 7d3e 01dd 45be bd43 d4bd 8049 203e
000000b0: 2bf6 cbbd ddd5 ab3c fd4e ef3e 95ba 213f
000000c0: 0f82 c1be 6af2 07bf 848d 89be cdb4 f6be
000000d0: f74b 18be 51e4 9dbc 9f88 1f3e 1f84 e33e
000000e0: 680c 263c fa1c 1abe f1d2 9a3d a97d e5be
000000f0: 1e15 813d a6a9 333d b67a 8cbd 2b68 41bf
00000100: 532e 203e 0017 143e a78d 13bf 4578 e0be
00000110: 391e 95be 45d2 99be 894a fe3d 868f d43e
00000120: 7c4b 443e 601c bd3e 7f9b 683f 5029 3bbd
00000130: e67e c3bd 4027 93be 82b2 2bbf 5b0c 3bbe
00000140: 320c cdbd 024b d1bd 6e29 503e 5f3e 2f3e
00000150: e3ae 13bd 0326 e7be bb12 38be 15e5 2e3e
00000160: 55f7 193e a24a 453e 1ee1 9c3d a12c 0d3e
00000170: c597 ff3e 2d67 9bbe 98df 013e bc45 b03d
00000180: 5549 38be 5935 38bd f983 0bbe e59f cabd
00000190: 7f94 8cbe 68be 10bd 758f 24be 1fa4 443e
000001a0: a1dd 723e de95 9e3d 6973 d0be e9c1 a93d
000001b0: e8bc 90be d157 ee3b de75 c83e 7aee 393e
000001c0: 88a9 31bf 074d 8a3e 5600 9e3e 7a15 763d
000001d0: 7e23 b2be 84c3 d03e b2d9 37be 21a5 4dbe
000001e0: 1b58 92be d0ee d0bc 1533 8dbe e042 81be
000001f0: 66d7 5a3b 9797 fa3d 6592 c3be b8b0 b83e
00000200: 3a53 07be 30d5 3a3c be13 8abe 96d8 8e3d
00000210: c118 cfbe d0c5 3b3e cc34 acbc 4266 883d
00000220: 646d 0dbc 28b4 74bd dd35 dcbb 397e 68bc
00000230: bffe 20be dfab 8c3a ebca 68bd c01b 99bd
00000240: 4276 e13e df54 d93d 9307 92bc a87e e93d
00000250: 3f46 203e 952b 58be 38cf 773e ed16 a7bd
00000260: 3529 08bf 41db 9fbf 0d90 a0bd 5c73 0e3e
00000270: 61c4 8dbe a99e 9a3d c754 5b3e ba97 4dbe
00000280: 6978 ad3c 2966 d03e 40a2 a6bf ae3e 8d3e
00000290: ee08 053f 5b1c e5be 26b0 f53e d6e9 533e
000002a0: 7c67 89bf ac5f babe 9021 61be b584 03be
000002b0: 6b98 103e 50f0 163e b179 453e 617b 4bbd
000002c0: 4012 bbbd f4c4 703e c2f7 113e 9779 163c
000002d0: 8f31 abbf 8c34 91be 18a7 813e fe17 a3be
000002e0: f0dc 88bd caaa c83d 5c52 1f3e 3004 21bc
000002f0: c8ba 533e 158d 8d3e 6983 623d 7088 923e
00000300: e6df 6e3d a614 aa3d ab86 86be 3552 d4be
00000310: 4b23 ac3e aab2 d4bd 4e24 233c 4626 51bd
00000320: 3326 053e 0ddd d5bd 6449 3dbe bffc 2e3d
00000330: 87c9 f43d 9cc3 6b3d e2f1 203e d14b 34bf
00000340: c820 a33e a7d9 fc3e 41b9 f7bd f123 433e
00000350: f6d4 dabd acc9 1ebf 88fe 923d e53b 3ebe
00000360: fb91 4c3e e4c1 6a3e ba3e 9fbd 720e 98bd
00000370: 1461 0b3e 5237 f93d fb83 763e d18d babd
00000380: e10c 08be 7f31 5cbe d20c 5ebc ad77 d13d
00000390: 25da 88be 5377 4dbc c2ea 033e 3577 ef3c
000003a0: c01c 54bd 98aa a33d b467 cebc 5fa6 1b3e
000003b0: ba3e 90bc 9344 1c3c e399 a93d 90e2 11bd
000003c0: f3d9 02be b023 003e d278 163e ecb9 1dbf
000003d0: a903 23bd 1870 d73e 8c2a 4abc 411d ab3e
000003e0: 380c ed3d 3ee9 a1be 22ff e63d b097 79be
000003f0: c6c1 a1bf efac 153e 3e84 cd3e 3d6d cfbf
0.31575575 0.31673312 0.05787344 -0.42559427 0.045663085 -0.20891467 -0.20837907 -0.00336402
-0.13626325 -0.08488064 -0.016868055 0.39835322 -0.22660606 0.3360407 0.07779755 -0.19299361
-0.06764124 -0.15985665 -0.75825346 0.32871488 0.5324299 -0.85212713 -0.6501695 -0.11454769
0.36309487 0.27601942 -0.018351415 0.35503137 0.6200545 -0.92324156 0.20073853 0.2432536
0.25847995 -0.13753472 -0.117935106 -0.26585308 -0.19492146 -0.07773835 0.1616468 0.13480906
0.24784854 -0.19322588 -0.103644826 0.15653038 -0.09959062 0.020976001 0.4673995 0.63175327
-0.3779454 -0.5310427 -0.2686578 -0.48184815 -0.14872728 -0.019273909 0.1557946 0.44436738
0.010134794 -0.15050116 0.07559765 -0.44822434 0.06302856 0.04386296 -0.06859343 -0.7554957
0.15642671 0.14461899 -0.5763802 -0.43841758 -0.2912462 -0.30043235 0.1241656 0.4151575
0.1916942 0.3693571 0.9086227 -0.045693696 -0.09545688 -0.28740883 -0.67069256 -0.18266432
-0.10012092 -0.10219385 0.20328304 0.17113636 -0.036055457 -0.45146188 -0.17975895 0.17079575
0.15035756 0.19266751 0.07660125 0.13786556 0.49920478 -0.30352154 0.1268295 0.08607051
-0.17996724 -0.04497275 -0.13624562 -0.09893779 -0.27457044 -0.035337836 -0.1607035 0.19203232
0.23717357 0.07743429 -0.4071305 0.082889386 -0.28269124 0.007273652 0.39152426 0.18157378
-0.6939931 0.27011892 0.3085963 0.060079075 -0.34792703 0.40774167 -0.17954138 -0.20082523
-0.28582844 -0.0255045 -0.27578035 -0.25246334 0.0033392548 0.12235945 -0.38197628 0.36072326
-0.13215342 0.011403367 -0.26968187 0.06974904 -0.40448573 0.18337178 -0.02102127 0.06660129
-0.008632038 -0.059742123 -0.006720288 -0.01419025 -0.15722178 0.0010732374 -0.056834143 -0.07475996
0.44035536 0.10611891 -0.017825877 0.11401111 0.15651797 -0.21110375 0.24200141 -0.081586696
-0.53187877 -1.2488786 -0.078399755 0.13911194 -0.27688888 0.07549793 0.21419059 -0.2007741
0.02117558 0.40702942 -1.3018265 0.27586883 0.5196675 -0.44748196 0.47985953 0.2069467
-1.0734706 -0.36401117 -0.2198546 -0.12843592 0.14120643 0.1474011 0.19284703 -0.04967821
-0.0913434 0.23512632 0.14254668 0.009184263 -1.3374499 -0.28360403 0.25322795 -0.31854242
-0.066827655 0.097982004 0.15558761 -0.0098276585 0.2067672 0.276467 0.055301104 0.2861972
0.058318995 0.083047196 -0.26274619 -0.4146897 0.33620676 -0.1038564 0.009957386 -0.05106189
0.13002853 -0.10442553 -0.18485028 0.042721506 0.11952501 0.057559595 0.15717271 -0.70428187
0.31860948 0.49384806 -0.12095881 0.1905668 -0.1068515 -0.62026477 0.07177454 -0.18577535
0.19977562 0.22925526 -0.07775636 -0.0742463 0.13611251 0.12168755 0.24073784 -0.091090806
-0.13286163 -0.21503256 -0.013552861 0.102279045 -0.2672893 -0.012540656 0.12882522 0.029231647
-0.05178523 0.079915226 -0.025195934 0.15200184 -0.017608035 0.009537834 0.08281305 -0.035616457
-0.12778454 0.12513614 0.14694527 -0.6161182 -0.039798412 0.42077708 -0.0123392455 0.33420756
0.11574596 -0.31623262 0.112791315 -0.2437427 -1.263726 0.1461675 0.40139955 -1.6205212

bias f4 [32]
00000000: 07e2 52be 20da 62bd 82f5 bb3d 4ae8 8c3e
00000010: 13af d6bd ba51 193f c7b8 85bd 7187 ec3d
00000020: 7120 dbbc 6293 0ebe 75c0 793e 4341 f4bd
00000030: febb 8dbd 463e ee3e 25a8 5c3c 9f81 723f
00000040: 5f77 173d 432e afbe 7c47 6bbd 94c2 a73e
00000050: b5de 753e bb66 8a3e df09 ed3e 9b38 99bc
00000060: 602d efbd 3ef4 a9bd 2878 763f 8fea ae3e
00000070: 9f23 373e 3f65 2f3f f0e0 18bc c7ad f83e
-0.20594035 -0.0553838 0.09177686 0.27520972 -0.104826115 0.5989033 -0.06529384 0.11549271
-0.026748868 -0.1392341 0.24389823 -0.1192651 -0.06920622 0.46531886 0.013467823 0.94729036
0.036979076 -0.34214982 -0.05744122 0.3276564 0.24010737 0.27031502 0.46296594 -0.01870375
-0.116785765 -0.082985386 0.96277094 0.3416333 0.17884682 0.68513864 -0.009330973 0.48570082

weight f4 [64, 32, 3, 3]
00000000: 03af e1be dd4d 0abf 4b11 4cbf bb1f 86be
00000010: 7d3b 44bd 5bf0 14bf 21e7 f2bd bb1c ddbe
00000020: bde8 1abf cfb9 64be bf39 41be 4942 18bf
00000030: 50b8 cbbd 714c 0ebe f063 95be 3a3a 08bf
00000040: 341d c4bc 7ee2 febd a058 06bf 76d2 9abe
00000050: b33a a5be 0029 bebd a4c6 ffbe 9969 e9bd
00000060: 9e73 863e 7c9d 1ebf 512c 42be 0644 05bd
00000070: 9126 9dbe cc6a c7be 0cfa 86be 97d4 2cbe
00000080: ff50 54be c07d e4be 183f 96be 5502 733e
00000090: 582a 6abd e823 aebd 4dcb 10bd 8d86 a9bd
000000a0: 65e2 28bd 409c 28bd 99eb c3bd fcba 7abc
000000b0: 513d 9fbd 5db3 24bf 371c 1abf f5c4 4bbf
000000c0: 7709 b0be 9995 46bf 4bb6 32bf b005 2ebf
000000d0: 7761 05bf 9799 a1be 1345 cbbd 0be1 b6bd
000000e0: 0257 4cbd f18e ddbd bff0 17bd f4dd 71bd
000000f0: 36cd 03bd 1990 f8bb 8d56 c1bd ddbd 4ebe
00000100: bdb1 f3be ac9f b8be 068a d0be 1808 b7be
00000110: 5c45 dabe d50c c5be dad9 88be 2c81 ccbe
00000120: 9eec 33be a806 66bd 588f 86be 3ab7 22bf
00000130: e5ba aabe 6132 bebe f450 bebe 8959 193e
00000140: 1be3 91be 7644 fe3c b165 413c 2b1d 3bbc
00000150: 889b 3bbd b048 a93c 199e 133d 2628 b23c
00000160: 821d 7a3c 40ce bebb b626 e33d 5ce5 6dbe
00000170: dc64 e5be be80 ebbe d5f0 85be 750c fbbe
00000180: 898a cfbe f99e 55be ed53 14bf 1b7d 2fbb
00000190: 661f 803c e5e5 693d 04f9 00bd ba53 39bd
000001a0: 979f fcbc 301b 203b 3859 a43c 7888 ebbc
000001b0: 332c b0be 7221 53bf 1268 35bf 0397 ecbe
000001c0: c340 28bf aa71 15bf 57c9 59bf 45e3 39bf
000001d0: 2243 3bbf 48ad de3e 685e fcbd 2bd0 efbe
000001e0: 4010 58be dd7e 16bf 8431 cbbe 4931 3cbd
000001f0: 1eff 76be 96d5 02bf ec61 b8be a319 5b3e
00000200: d283 d03d 93e6 8bbd 2734 1cbd 8b29 85be
00000210: 23ec 22be 6190 f1be edbd e4be f318 163f
00000220: 4b2d bcbd be84 53bb 0393 003e 9d5c 8ebd
00000230: f74b d2be 6497 89bd cd4f 27bf 61b9 03bf
00000240: ef3c 643d 09a0 18bd 4804 c2be d5b0 bd3e
00000250: f676 05be 5dcb 9bbe b338 96be e091 953d
00000260: 2033 04bf d402 983d 2305 d83c e704 26bd
00000270: 99e3 86bd d524 c2bb 4f72 4c3c fa6f 633d
00000280: c4e3 b8bd e297 273d ce93 bfbd 3178 69bd
00000290: 7ee4 8cbd d319 a2b8 aa31 8ebd 6463 52bc
000002a0: 7267 993c aca1 51ba d442 ba3d f4bf 8abe
000002b0: be35 98be 9674 a5be bc91 2e3f ae78 87be
000002c0: 8be7 93be 17a7 1abf 3c28 57bf 1498 0ebf
000002d0: 75d0 f3bd 2d62 d53c 2b56 2fbe b8fc 43be
000002e0: 3819 9ebe 229b afbd 7312 dfbd 566e 663d
000002f0: 9520 9abd eff5 583d 97ca 52be 1e61 b1be
00000300: ebd3 25be 2ed6 26be 922f 40be 7024 64bd
00000310: e87d 86be bc47 32be 06a8 a2bc fd30 b9be
00000320: c834 93be 887c e0be 53a9 61be 6069 cbbd
00000330: 9ed7 6fbd a46c 3cbe 6d61 f53d dbb4 0fbf
00000340: 5c14 23bf 014d 66be 67b7 cebe aaf9 0ebf
00000350: b90b c4be 7fd2 193d a096 96be 774f a7bd
00000360: b3a1 1ebd c14e b5bd 2f27 1bbb 0b70 12bc
00000370: b320 13bd ff09 61bd d9e3 64bd 2ba1 d5bd
00000380: 762b 92bd 55af 65bd 798a 44bb 393a bf3a
00000390: 679a 2fbd 16a5 9abd fc2e 25bd c3a1 c6bd
000003a0: 500a 0eba 8e40 c4bd cef0 f73d 5014 523c
000003b0: 2866 633e 9c99 393e 48c8 ac3e c3c7 3ebe
000003c0: 499a 42be 5f46 7cbf 70dd 02bf 433e 92be
000003d0: 2aa7 e6be 72eb 05bd b680 5fbe b2eb f6be
000003e0: 4d8a b7be 8479 653d 34ea 27bf f3df 3bbe
000003f0: f1bd 60be 6b01 a4be 8082 6d3c 3f02 d1bd
-0.44078836 -0.5402506 -0.79713887 -0.26196083 -0.047908295 -0.58179253 -0.118604906 -0.43185982
-0.6051138 -0.22336505 -0.18869685 -0.59476143 -0.09947264 -0.13896348 -0.2917781 -0.53213847
-0.023939706 -0.12445544 -0.5247898 -0.30238694 -0.32271346 -0.09285164 -0.49956238 -0.11397094
0.26260084 -0.6195905 -0.18962218 -0.032535575 -0.30693486 -0.38948667 -0.26362646 -0.16877972
-0.20734023 -0.4462719 -0.29345012 0.23731358 -0.05716929 -0.08502942 -0.035350133 -0.08277617
-0.04123153 -0.041164637 -0.09566421 -0.01530337 -0.07775367 -0.64336187 -0.601993 -0.7959741
-0.3438222 -0.7757202 -0.69809407 -0.6797743 -0.52101845 -0.31562492 -0.09925284 -0.08929642
-0.049887665 -0.108182795 -0.037094828 -0.05904956 -0.032178126 -0.007585537 -0.094403364 -0.20189615
-0.4759654 -0.3605932 -0.40730304 -0.35748363 -0.42631042 -0.38486353 -0.26728708 -0.399423
-0.17570731 -0.05615869 -0.26281238 -0.6356083 -0.33345714 -0.3714781 -0.37171137 0.14975561
-0.2849358 0.031038504 0.01180403 -0.011420528 -0.045802623 0.020664543 0.036039446 0.02174766
0.015265824 -0.0058229268 0.11091368 -0.23232025 -0.44803512 -0.4599666 -0.26160303 -0.4903294
-0.4053538 -0.20861425 -0.5794056 -0.002677745 0.015639972 0.05710401 -0.03148748 -0.045245863
-0.030837817 0.0024430268 0.020062074 -0.028751597 -0.3440872 -0.8247291 -0.70861924 -0.46208963
-0.6572382 -0.5837656 -0.85072845 -0.7261241 -0.7314931 0.43491578 -0.12322694 -0.46838507
-0.21099949 -0.5878733 -0.39686215 -0.04594544 -0.24120757 -0.51107156 -0.36012208 0.21396498
0.10181393 -0.06831088 -0.038135674 -0.26008257 -0.15910392 -0.47180465 -0.44676152 0.5863182
-0.091883264 -0.0032275165 0.1255608 -0.06951258 -0.41073582 -0.067183286 -0.6535614 -0.5145474
0.055722173 -0.037261996 -0.3789389 0.37048975 -0.13033661 -0.3042859 -0.29340133 0.07303214
-0.5164051 0.074224144 0.026369637 -0.04053202 -0.065863796 -0.005924801 0.012478425 0.05552671
-0.09027818 0.04091633 -0.093543634 -0.05699939 -0.06879519 -7.729572e-05 -0.069430664 -0.012841079
0.018726084 -0.0007996808 0.09094778 -0.27099574 -0.29728502 -0.3231551 0.68191123 -0.2645926
-0.2888759 -0.6041121 -0.8404577 -0.557008 -0.119049944 0.02604779 -0.17122714 -0.19139373
-0.30878615 -0.08574511 -0.10892191 0.05625757 -0.07525746 0.052968916 -0.20585094 -0.34644407
-0.16194122 -0.1629264 -0.18768147 -0.055698812 -0.26267934 -0.17410177 -0.01985551 -0.36170188
-0.28751206 -0.4384501 -0.22037248 -0.09932208 -0.058555238 -0.18400818 0.11981473 -0.5613534
-0.6370294 -0.22490312 -0.403743 -0.5584971 -0.38290194 0.03755426 -0.29411793 -0.081694536
-0.038728427 -0.08852912 -0.0023674478 -0.008937846 -0.035919856 -0.054941174 -0.055881355 -0.10431131
-0.07137196 -0.056075413 -0.0029989763 0.0014589495 -0.04287186 -0.07551019 -0.04032801 -0.09698822
-0.0005418407 -0.09582625 0.12106477 0.012822226 0.22206938 0.18125004 0.33746552 -0.1863089
-0.19004168 -0.9854488 -0.51119137 -0.28563127 -0.4504941 -0.03269524 -0.21826443 -0.48226696
-0.35847703 0.05602409 -0.6559174 -0.18347149 -0.21947457 -0.32032332 0.014496446 -0.102055065

bias f4 [64]
00000000: 9621 14bf fe67 103e 7b9c 29bf 8e62 df3d
00000010: 4f8c b7bd ffbd 5abe 0a1a c53e 0544 e3bd
00000020: 5182 6ebe 59fe 92bd f3d9 2cbe 5ece 88bd
00000030: 2799 07bd e0e1 40bd 3425 d7bd 3def 2fbd
00000040: cf68 1dbe 29bf 22be efed b8bd 5c84 0d3e
00000050: 4b56 813d 8d5c 01be 844c 11bd 456b a63e
00000060: 25c2 23bd 36e1 8abd a8b7 b0bd 4f3a 83bd
00000070: 39be 2fbe 42e6 c4bd 54ae 2c3d 1176 c33e
00000080: 93ee 97be b40d 0bbd d7a9 853d f762 33bf
00000090: 1ffb 4a3f 480f f7bd 4b91 a23e 1ee0 e13d
000000a0: ae5e 02be 6765 5b3f 13a0 b6bb dfb5 6c3d
000000b0: 70d5 9dbd f3c4 b3be a9e0 8b3e 6cce 2b3e
000000c0: 487a ff3d 621c 5e3e bc48 e73d bdc6 b7bd
000000d0: 5996 3abc 33cb 713e bbd3 8bbd 6944 6a3e
000000e0: 9205 973e 1c65 55be 8a10 243f 488c 01be
000000f0: 3253 603e 5140 253e 4446 c83d b7a1 85bd
-0.5786375 0.1410217 -0.66254395 0.1090747 -0.089623086 -0.2136154 0.3849643 -0.11096958
-0.232919 -0.07177419 -0.16880016 -0.066799864 -0.03310504 -0.04709041 -0.10505143 -0.042952765
-0.15372013 -0.15893234 -0.09029757 0.13820022 0.06315287 -0.12632962 -0.03547336 0.32503715
-0.039980073 -0.06781237 -0.0862878 -0.06407606 -0.17162408 -0.09614231 0.04215844 0.38176015
-0.29674205 -0.033948615 0.06526535 -0.70072883 0.7928943 -0.120634615 0.31751475 0.11029075
-0.1273143 0.857016 -0.0055732816 0.057790633 -0.077067256 -0.35111198 0.2731984 0.16777962
0.12474495 0.21690515 0.1129317 -0.08973453 -0.011388385 0.2361267 -0.06827494 0.22877659
0.29496437 -0.20839351 0.64087737 -0.1265117 0.21906736 0.16137816 0.09779027 -0.06524985

weight f4 [128, 64, 3, 3]
00000000: df53 3cbd 1388 e03c bb06 b53d 2343 143d
00000010: b8ce 07bd bbbe 0abd fcf5 693b 00a1 88bc
00000020: 6b85 043d 587f 31bd c644 423c 8f5f 8bbe
00000030: 79f9 a1be 2bbb e03b f8b9 7abe 721f 65be
00000040: 856f 87be c4e0 50be af18 c8bd d4f8 3b3d
00000050: 3f6a a83d 2ae7 05bd 0974 b8bd ceb3 54bd
00000060: bcb7 8e3d 4d2c 4ebd 5dcb 0abd e407 aabd
00000070: 750a 7c39 0df9 cdbd d75d 13bd 0568 51bd
00000080: 0672 b1bd 8f38 29bd 9035 31bd e0a9 a4bd
00000090: 975b 6d3d 6adb 0e3d 8167 0e3d 0ead 42bd
000000a0: e8dc 673d 13d4 8e3d dddc 51bd 3b48 aa3c
000000b0: 3997 8c3d abce f23c bec5 63be 0090 82be
000000c0: ea6b 8fbe 8426 7abe 775f 9dbe 6bdc 96be
000000d0: 4daf abbe a95e 9ebe e436 81be 3f47 0fbe
000000e0: bc69 16be 4c54 2dbe 69e4 a4bd e2a0 50bd
000000f0: de12 e2bd 95c3 83bd 3b3d aebd 1e18 9fbd
00000100: 6aa2 09bd aa4d 3dbd ec74 16be 078e eebd
00000110: a322 0fbe 7d57 00bd 8ff0 a2bd 1e52 0bbd
00000120: 4116 38be 2186 8cbe bbb9 0ebe 27c3 a13d
00000130: f17d 3abd 3451 c7bd 2778 493e 8e85 9dbe
00000140: aabb acbe b4ab aabd b3dd 78bd b232 7dbd
00000150: ebd5 86bd 9845 56bd 8c10 42bc 765c ebbd
00000160: 8f5f c9bd b39f c7bd 2c1b 943d 2bd9 9d3d
00000170: 80c3 6a3d 70ec a23d b92c 563d c048 133d
00000180: 7397 6e3d 1c2d 9d3d 4d8c 6cbd 141c ba3c
00000190: 2261 543d 60c6 8a3d d785 4d3d 9ac9 61bd
000001a0: 0847 b53d 9419 cc3c af30 3d3d 5b05 a53d
000001b0: 853c 3ebd 4c23 f8bc d6c8 a7bd 7dcc c9bd
000001c0: be56 cebd cfc3 9cbd 6d41 16bd 8fc6 47bd
000001d0: 6af0 47bd 71d2 b9bd a1e9 0cbd c744 82bd
000001e0: b374 81bd f07c 8ebd 04a8 71be 4910 50be
000001f0: d57c 8fbe 0cb6 81bd ed5c df3c de17 cfbc
00000200: 11c1 6b3c 3018 34b8 4062 0cbd 959e 523d
00000210: 4cd6 b3bc c10c cb3c 0d9f 0abd 1fa2 9fbd
00000220: c965 c7bd 1559 cfbd 33fa 93bd 4578 5abd
00000230: 743a b2bd 776f 54bd 5c82 abbc 1ae7 babd
00000240: 76a2 06be 2adc 99be 2342 debd 91d2 d2bd
00000250: 0348 5c3a ca37 0b3d 76ed a63d 2e71 3abe
00000260: f7a9 e63d f3fd 9dbe 7964 96be ca96 6ebe
00000270: 368a 16be 81b6 31bd 3e97 66bd 5e49 e2bd
00000280: 345e 16bd 00aa 97bd 9b95 b9bc 130d a73d
00000290: 7632 903d 50e7 b73d d4c9 ba3c b4ed a93d
000002a0: 08ac 7a3d d151 ff3c cef1 e63c 0f27 93be
000002b0: ca55 10bd 1417 39be b6ad 79be 4f42 84be
000002c0: a30e 1fbe a8ab b7bd c726 f13c 6179 923d
000002d0: 9962 29be 441a bdbd fdd7 0dbd 330c 71be
000002e0: 1c62 afbd 0910 a4bd 79dc bebc 1d9d 73bd
000002f0: cb7e 29bd 8bbf 50be 6766 19be 5559 d6bd
00000300: 3298 13be 2947 f5bc 2338 81bd d19b 6fbd
00000310: 7590 84bd 3f6c 0abd 1f74 b2bd bec5 b7bd
00000320: b517 77bd c3d7 32bd 315a 0dbd 314f 55bd
00000330: 95f8 cabd f3d8 1fbd 6c4d cabd 6856 cabe
00000340: d64d aabe 2592 d1bd 72cb 7abe 2648 323e
00000350: a046 7bbe 0318 5a3e 9880 b03b ffb6 503c
00000360: 96b6 19bd b9e0 c2bd 061e 36bd ba67 06bd
00000370: 9980 babd 58be 77bd 06c4 a9bd fa3f b1bc
00000380: c772 2fbd 5c03 9bbd d6b4 70bd e87b c4bd
00000390: 5246 c2bd 37fc 40bd ba0e 01bd 01b3 8bbd
000003a0: ce87 68bd 110c 94bd 0cf8 993d cfd3 41bb
000003b0: de0d 23bb d87b 26bb 64b4 d6bc a184 9cbc
000003c0: 9f77 ad3d 4aba 563d 3b3f eabc 3224 7fbd
000003d0: 3cb9 01bd 3510 0dbd fe79 aabd aba0 a13d
000003e0: 19b8 fc3c f5b2 613d fc7c 243d 9c49 a8bd
000003f0: 1767 273d 666c 3bbc e24d f83c 1cee 173c
-0.045978423 0.027408635 0.08839174 0.03619684 -0.033156127 -0.0338733 0.0035699597 -0.016678333
0.0323538 -0.043334335 0.011857217 -0.27221343 -0.31635645 0.0068582497 -0.24485004 -0.22375277
-0.2645227 -0.20398241 -0.09770333 0.045891598 0.0822339 -0.03269116 -0.09006507 -0.051929288
0.06968638 -0.050335217 -0.03388535 -0.08302286 0.00024036488 -0.10057268 -0.035978165 -0.05112459
-0.08664326 -0.041313704 -0.04326397 -0.080402136 0.057948675 0.03487722 0.034766678 -0.04752832
0.056607157 0.06974044 -0.051236022 0.020786395 0.06864781 0.029639563 -0.22243401 -0.25500488
-0.2801202 -0.24428755 -0.30736896 -0.2946504 -0.3353218 -0.30931595 -0.2523719 -0.13992022
-0.14688772 -0.16926688 -0.08051378 -0.05093468 -0.11038755 -0.06433789 -0.085077725 -0.07768272
-0.033602156 -0.046216644 -0.1469304 -0.11648183 -0.13978057 -0.031333435 -0.07956039 -0.03401386
-0.17977239 -0.27446082 -0.13938038 0.078985505 -0.045530263 -0.09732285 0.1967474 -0.30765957
-0.33736926 -0.08333531 -0.060758304 -0.061815925 -0.0658377 -0.052312464 -0.011844765 -0.11492245
-0.098326795 -0.09747257 0.07231745 0.07707437 0.05731535 0.07955253 0.052288745 0.03595805
0.058249902 0.076746196 -0.05775099 0.022718467 0.051850446 0.06776118 0.050176468 -0.055123903
0.08851439 0.02491454 0.046189006 0.08057662 -0.046444435 -0.030290268 -0.08192603 -0.09853456
-0.100751385 -0.07654535 -0.03668349 -0.048773345 -0.04881326 -0.09073342 -0.034402493 -0.063607745
-0.06321087 -0.06957424 -0.23599249 -0.20318712 -0.28024927 -0.06333551 0.02726599 -0.025279935
0.014389292 -4.293787e-05 -0.034273386 0.051420767 -0.02195277 0.024786355 -0.03384309 -0.07794594
-0.09736211 -0.10124413 -0.07225456 -0.053337354 -0.08702555 -0.051864114 -0.020936184 -0.091261104
-0.13147911 -0.30050784 -0.10852458 -0.102940686 0.00084030646 0.03398875 0.08150761 -0.18207237
0.11262887 -0.3085781 -0.2937353 -0.23299709 -0.14701161 -0.04338694 -0.05629658 -0.1104915
-0.036710933 -0.07405472 -0.022654345 0.081567906 0.07040875 0.08979666 0.022801317 0.082972914
0.061199218 0.031166943 0.028191473 -0.28740737 -0.035238065 -0.1807521 -0.24382672 -0.2583184
-0.15532927 -0.08968288 0.029437436 0.071520574 -0.16541518 -0.092335254 -0.03462981 -0.2353981
-0.08563635 -0.08010871 -0.023298489 -0.059476007 -0.041380685 -0.20385568 -0.1498047 -0.104662575
-0.14413527 -0.029941158 -0.06309535 -0.058498207 -0.064728655 -0.033794638 -0.087135546 -0.08973263
-0.060325343 -0.043662798 -0.03450984 -0.052077476 -0.099106945 -0.03902526 -0.09878048 -0.39519048
-0.3326251 -0.10232953 -0.2449167 0.17410335 -0.2453866 0.21298222 0.0053864233 0.012738942
-0.037527643 -0.09515519 -0.044462226 -0.032813765 -0.09106559 -0.06048426 -0.08289342 -0.021636952
-0.04283407 -0.07569 -0.05876621 -0.09593946 -0.09486069 -0.04711553 -0.031508185 -0.06821252
-0.05677014 -0.07228864 0.07518014 -0.002957571 -0.0024880092 -0.0025403406 -0.026209064 -0.019106211
0.084700815 0.052423753 -0.028594604 -0.062290378 -0.031670794 -0.034439284 -0.083240494 0.07891973
0.030849503 0.055102307 0.040158257 -0.08217165 0.0408698 -0.011439418 0.030310575 0.009273078

bias f4 [128]
00000000: dba3 9bbd cb61 99bc 7175 a4bd 1b77 85bd
00000010: 2a50 b73b bc1b 1f3e 19f4 afbe be9e a2bd
00000020: ecbc 8cbd 01b7 8fbd 69cd ca3e 908d c9bd
00000030: 4ecb b5bd 0b8b 99bd d5ee 19be 26d7 9cbd
00000040: 8f7b 013e 7e48 223e 700c 2a3e a8b4 4d3e
00000050: 2769 7bbe d94a fe3e 6061 293e 16d2 aebd
00000060: 4762 21bd c1c0 7bbd e489 3c3e 9326 16bc
00000070: e680 70be 4b10 6b3e bd61 46bc f628 8f3e
00000080: e685 713d 141f 3abd fed4 9bbc 8f69 47bd
00000090: 0071 683d ba8d 9bbe fce2 d03e bced 313d
000000a0: f2af bebc ccc3 00bd 3f6c 073e 7ae1 9dbe
000000b0: da09 bf3d c9e5 42be 4f48 21be 16c8 b0bd
000000c0: f413 2b3d 2e55 b1bd 4eaa 80be 4112 413e
000000d0: 0485 a33e 275c 4cbd a5d2 41bd d012 6dbd
000000e0: 1314 4b3c 6f4c 2dbd 6012 a9bd e81f ab3e
000000f0: 0fd0 983d 6da9 9fbd 85e2 59bd 32d2 aabd
00000100: ee1c 023e 375d f13d aa6d 243f 31a9 d83e
00000110: 91d0 323e 9355 633d a0a9 f83d 4e20 273e
00000120: 3a45 cf3d 1355 b4bd d7bb 0dbe f6a2 f03e
00000130: d020 fa3d 5496 25bd cc64 553e d2d6 9cbd
00000140: b0f1 b8be 60a3 973d 32f4 86bd 9197 1b3f
00000150: 40ff 24bd 04d8 cdbe 9fdc 25bf 207c 7abe
00000160: de11 96be d335 a2bd c1ff 6a3e eb29 233f
00000170: 166e babc a768 373e 02a7 873e aebe 623d
00000180: dffb ce3e 3dad 21bd 76c6 f13e e6a8 cbbd
00000190: eddf 8f3e a251 02be d608 c4bc 95d8 123e
000001a0: 5355 993e ee90 acbe 39dd adbd 800b 163e
000001b0: f48a 9fbd 3d2a b53e 0f9a b33e e680 bcbd
000001c0: ae6b 2b3e e0c8 bdbd 2b08 dabe 903f 413e
000001d0: 6078 433f 824d 93bd f626 1b3e e48b 913e
000001e0: 1c0a 973e 6ca0 1fbe 3fb4 acbd 735e d23e
000001f0: 4068 803d 9c4f a73d f4c7 013e 0a5b 313e
-0.07599612 -0.01872339 -0.08030213 -0.06516858 0.005594273 0.15537924 -0.3436592 -0.07940434
-0.068719715 -0.07017327 0.3960984 -0.09841454 -0.08876668 -0.074972235 -0.15032513 -0.07658224
0.1264479 0.15847966 0.16606307 0.20088446 -0.24551831 0.4966648 0.16541052 -0.085361645
-0.039400365 -0.06146312 0.18411976 -0.00916447 -0.23486671 0.22955434 -0.012108264 0.27960938
0.058965586 -0.045439795 -0.019022461 -0.048684653 0.05674839 -0.30381566 0.40798175 0.04343961
-0.023277257 -0.031436726 0.13224886 -0.30836087 0.09328051 -0.19032969 -0.1575024 -0.08631913
0.041767076 -0.08658825 -0.25129932 0.1885462 0.3193742 -0.04989257 -0.047320027 -0.05787927
0.012394923 -0.04230922 -0.08255458 0.3342278 0.07461559 -0.07795987 -0.05319454 -0.08340873
0.12706348 0.117853574 0.64229834 0.42316583 0.17462374 0.05550153 0.121417284 0.16320917
0.10120626 -0.08805289 -0.13841186 0.4699933 0.1221329 -0.040426567 0.20839232 -0.07658161
-0.36121893 0.07404208 -0.06589545 0.60778147 -0.040282488 -0.4020387 -0.64789766 -0.24461412
-0.29310507 -0.079204224 0.22949125 0.63735837 -0.022757571 0.17911015 0.26494604 0.055357628
0.40426537 -0.039471854 0.47221726 -0.09944324 0.2810053 -0.12726453 -0.023929995 0.14340432
0.2994791 -0.33704323 -0.084894605 0.14652824 -0.07790175 0.35383788 0.35078475 -0.09204273
0.16740295 -0.092668295 -0.42584357 0.18871903 0.7635555 -0.07192518 0.15151581 0.2842704
0.294999 -0.1558854 -0.08432817 0.41087684 0.06269884 0.08169481 0.12673932 0.17319885

weight f4 [32, 128]
00000000: aee9 773b 0c4f 21be 106f 103e 893f 033d
00000010: d4b5 743e 04e0 853c b7e4 0e3e abe1 17bc
00000020: 024d 81bd 752b 13bc ca7e d9bd 5fb3 83be
00000030: 2864 aebd f405 f7bd 414f 803d 6c3e 2dbd
00000040: 3260 e33d a939 323c c477 2dbe f5f6 343d
00000050: 08dd 92bc 54b8 2ebe 7da3 0c3d 2a80 1a3b
00000060: a6ac 81bd cb06 36be 8744 cabc df47 643e
00000070: 2ae2 393d 8fae cf3d 011f 90bd 99fa 573d
00000080: 8131 083e b20a 823c 07a5 f7bd ef33 11bd
00000090: ff33 0bbe 9e47 62bd d223 89bd f19f 563e
000000a0: ed85 2dbe 4b81 9ebc 6aa7 193e b363 80bd
000000b0: afdb a43c 4fff a23e c4a3 c9bc eb5c 10be
000000c0: 37b3 6bbd ce5a 003e f0e8 3c3e 80df bfbc
000000d0: b6e0 1a3e 6b87 26be 2ba8 b5bd 0c89 a4bd
000000e0: d92f 8abc 3003 3d3d 23f5 e1bb eab5 1fbd
000000f0: 54c6 b43d 7f62 e13d f42e eb3c 7aef 30bd
00000100: 7925 2cbd 0d15 1bbe 3263 46bd 473f 6b3d
00000110: 6d5d 3d3d 2ce1 30bc 448e 28be 73b1 993d
00000120: b89d cabc 6ee2 7abb 7d6d d4bb d4c7 853d
00000130: a8a6 403d 3f34 933d a2ad 0dbe dd03 0b3d
00000140: c7b6 63bc ffb6 2abe 0951 a6bd bc11 323c
00000150: 1603 433b 49c8 393e 34fe 80be e1ea 923e
00000160: da32 0b3f ccb4 213c 8ba8 e7bd c617 7d3d
00000170: 2282 e4b9 6c06 df3a b169 60be 7be7 c0bd
00000180: deba 57bd cae2 3a3d 575e aabc 8eb1 f4bd
00000190: 0555 1f3d 7ab4 a8bd 2c04 3dbe d11d 153b
000001a0: 4c61 59be e1e8 6f3d 1bad be3d a390 e73c
000001b0: 3ff9 a2bd 1a53 a0bd 8b11 08bc 6388 05be
000001c0: 25e9 9a3d a090 233b 7cdf 133d 0ad6 363e
000001d0: 18f5 85bd 9926 b9bd b7df 80bd 6626 9e3d
000001e0: e0ad fcbc ecf7 26bd 450c 0a3d 254f e1bd
000001f0: 4bb7 0ebc eb22 87be 51ad 69ba 205f 673e
00000200: 5824 d83c 2d51 183d 0011 74bd a251 bc3d
00000210: f32a 10bd 66ea 13bb 9f99 3fbe 6cde 3cbd
00000220: 6ae7 fa3d 474d b1bd 19d3 0fbd 4813 b13e
00000230: 8f4c 33bd feb0 653d 1d66 92bc 2ae2 43be
00000240: 5650 a8bd b6fd ccbd cac0 ff3d 8974 c03d
00000250: f6d8 b33d ca40 803d 29aa 1dbd 6ac6 00bd
00000260: 65da 0c3c bad9 663c 3a39 1c3e c337 b43d
00000270: be00 453e b2ce 45bc 0785 1f3e 9906 07bb
00000280: f08c a93d 0e94 943c 2aba dfbb 4bf7 5cbb
00000290: dcc3 3cbe 88f9 0f3f fad4 59bd 335b 313d
000002a0: 9ebb ddbb d10e bebd a604 63bd a394 023f
000002b0: 25b6 e7bc 1297 803e 24bc 3d3e 8ec6 80bc
000002c0: d317 5b3e 252c d43d f74b 93be 266e 0cbd
000002d0: abdb 493e 1512 a03c 45bc 9dbc ef10 523d
000002e0: 981a 8f3c 29de b8bc f013 5ebb 365b 10bd
000002f0: 1608 bdbc 63a7 3fbd 37b8 813d c17e 08bd
00000300: 634c bb3c 241c 5e3c 06c2 b43d a1ed 1ebc
00000310: 7b0d 91bb 218f d43d 0c8f 123e 6c55 20bc
00000320: b4f9 153e fb29 433d bcfb 0fbe 4769 35bd
00000330: ae68 d4bd 0982 1c3d 7f61 0c3e 58e8 20bd
00000340: fd07 9abd bb87 a33d 78e8 edbc 3749 04be
00000350: a4bd a93d 3f46 c6bc 99df 86be 9333 babe
00000360: 1176 e03c 5471 88bd 5c32 b0bd b2c0 0cbd
00000370: fdaf 7eba b520 e0bc 3f1a 3e3d 598e 2f3e
00000380: 3520 ea3d b2ae e8bc 73ea 4f3d e3df 4b3c
00000390: 05be 583e b887 e9bd 514a efbd c09e 6a3d
000003a0: b5d6 483e 74e1 91bc 5855 4abd 3d16 82bd
000003b0: 7495 293d 5c3c a13d 7a67 b7bc e9d7 37bc
000003c0: 2044 113d 584a aabd 6c39 073e ef7e 65bd
000003d0: df60 a7bd 4207 05bc dc9b 703e 874c 2dbc
000003e0: 85bf 78bd a02e 1abd 8d77 b7bd 3a6f 86bc
000003f0: ac49 283e 4018 d3bc 0301 ca3d e399 e13d
0.0037828493 -0.1575281 0.14104867 0.032043014 0.23897487 0.01634217 0.13954435 -0.009270112
-0.06313516 -0.008982529 -0.10619886 -0.25722787 -0.08515197 -0.12061682 0.062651165 -0.04229586
0.11102332 0.010878005 -0.16940218 0.04418083 -0.017927662 -0.17062503 0.034335602 0.0023574927
-0.06331758 -0.17776029 -0.02469088 0.22293042 0.045381702 0.10140716 -0.070371635 0.052729223
0.13300134 0.01587424 -0.12092023 -0.03544992 -0.13594054 -0.05524408 -0.06696285 0.2095945
-0.1694562 -0.019348761 0.1500527 -0.06269016 0.020124285 0.3183541 -0.024614222 -0.14097945
-0.05754396 0.12534639 0.18448234 -0.023422003 0.15124783 -0.16262595 -0.08869966 -0.08033952
-0.016868519 0.046145618 -0.0068956777 -0.038991846 0.088268906 0.11005115 0.028708912 -0.043197133
-0.042027924 -0.15144749 -0.048434444 0.057433393 0.046231676 -0.010795873 -0.1646052 0.07504549
-0.02473341 -0.0038281935 -0.0064827786 0.06532255 0.047033936 0.071876995 -0.13835767 0.03393923
-0.013898558 -0.1667137 -0.08120925 0.010868486 0.0029756478 0.18142809 -0.25193942 0.28694823
0.5437447 0.0098697655 -0.11311444 0.06179025 -0.00043584505 0.0017015464 -0.21915318 -0.094191514
-0.052668445 0.04562644 -0.020796938 -0.11947928 0.03889944 -0.08237548 -0.18458623 0.0022753368
-0.21228522 0.0585717 0.09310361 0.02826721 -0.07957696 -0.0782835 -0.008304964 -0.13040309
0.07564 0.002495803 0.036101803 0.17855087 -0.065408885 -0.09040565 -0.0629267 0.07722168
-0.030844629 -0.04076378 0.033703107 -0.11001424 -0.008710693 -0.26393828 -0.0008914071 0.22594881
0.026384518 0.03718679 -0.059586525 0.09195258 -0.03519721 -0.0022570132 -0.18710946 -0.046110556
0.1225117 -0.086573176 -0.035113428 0.34585023 -0.043774184 0.056076996 -0.017870957 -0.19129243
-0.08218448 -0.10009329 0.124879435 0.09397227 0.087816164 0.062623575 -0.038492355 -0.031439222
0.008596991 0.014089996 0.15256205 0.08799698 0.19238564 -0.012073206 0.1557809 -0.0020603298
0.08278835 0.018137004 -0.0068276124 -0.0033716734 -0.1843409 0.5624013 -0.053181626 0.043299865
-0.0067667505 -0.0928017 -0.055424355 0.5100805 -0.028285095 0.25115258 0.18528801 -0.015719678
0.21395807 0.103599824 -0.28768894 -0.034284733 0.19712703 0.019539872 -0.019254813 0.05128568
0.017468736 -0.022566872 -0.0033886395 -0.035243236 -0.023075145 -0.04679049 0.06333964 -0.033324007
0.022863572 0.013556514 0.088260695 -0.00970021 -0.004426656 0.10378862 0.1431238 -0.009785991
0.14646035 0.047647458 -0.14060873 -0.044289853 -0.103715286 0.03820995 0.13709067 -0.03928408
-0.07521055 0.07984873 -0.029041514 -0.12918554 0.08288124 -0.024203418 -0.26342466 -0.36367473
0.027400048 -0.066622406 -0.08603355 -0.034363456 -0.00097155554 -0.027359346 0.04641175 0.17144145
0.11431924 -0.028403614 0.050760698 0.0124435155 0.21166237 -0.114028394 -0.116840966 0.057280302
0.19613154 -0.0178077 -0.049397796 -0.06351898 0.041402295 0.07872841 -0.022388209 -0.011220911
0.03546536 -0.08314961 0.13205498 -0.056029256 -0.081727736 -0.008119406 0.23496956 -0.010577328
-0.060729522 -0.03764212 -0.089583494 -0.016410459 0.16434354 -0.0257684 0.09863474 0.1101568

bias f4 [32]
00000000: 1b36 213f 55f0 58bf bced a7be 8a09 543f
00000010: 6994 b43e faef 25bb 871d 93be 432d d23d
00000020: e914 693d 9c68 5a3e 711b 0b3d 3396 bb3e
00000030: 1d6a 68bf c3ab 1d3f 53f7 29bf 5783 09bf
00000040: 07a8 45bf a25f 58be aa65 48bf 9645 43be
00000050: 0ba6 d7be af80 a3bb faf0 313f 96fa bc3e
00000060: 2d9d 263e f0d4 233d 7278 943e 98ff 52be
00000070: bc87 32be 9593 2ebf c55d 44bf 0a3f 9f3e
0.62973183 -0.8474172 -0.32798564 0.82827055 0.35269478 -0.002532004 -0.28733465 0.10262539
0.056904707 0.21328968 0.033961717 0.3663803 -0.90786916 0.6159021 -0.6639301 -0.53716034
-0.77209514 -0.21130231 -0.7828013 -0.19069514 -0.42118868 -0.0049897055 0.69508326 0.36909932
0.16270895 0.039997995 0.28998142 -0.20605314 -0.17434591 -0.6819394 -0.7670558 0.31102782
