Digit-recognition/model_1.pt (torch_old, 101313 bytes, 8 tensors)

weight f4 [10, 1, 5, 5]
0	0x3e55b1e6	0.20868644
1	0x3e9dcbe9	0.30819634
2	0x3e6d3ab5	0.23166926
3	0xbe12db82	-0.14341548
4	0xbe293cb3	-0.16527061
5	0xbe38b3f4	-0.18037397
6	0xbe8b9a6d	-0.27266255
7	0x3eab9445	0.33511558
8	0x3dc0bee0	0.094114065
9	0xbdc4e4d1	-0.09613956
10	0xbea9794c	-0.33100355
11	0xbe9524e0	-0.29129696
12	0x3dd83717	0.105573826
13	0x3db77f2b	0.08959802
14	0x3b18247a	0.00232151
15	0x3d77e0e4	0.060517207
16	0xbe45bd67	-0.19310533
17	0xbc56961a	-0.01309731
18	0x3d153463	0.036426913
19	0x3e0b56f4	0.13607389
20	0x3e9030e4	0.281623
21	0xbce534e3	-0.02797932
22	0xbe0303b9	-0.12794389
23	0xbddd52a1	-0.10806776
24	0x3cc3ec0c	0.023916267
25	0xbde7cb33	-0.11318054
26	0x3c99ecd1	0.01878968
27	0x3cb54140	0.02212584
28	0x3daec62a	0.085338905
29	0x3c56b356	0.01310428
30	0xbe2b048f	-0.16700958
31	0x3ccf6895	0.025318423
32	0x3d89497d	0.0670347
33	0x3d44570b	0.047934573
34	0x3cff700b	0.031181356
35	0xbe5e9de5	-0.2173992
36	0xbc6e63ed	-0.014550191
37	0x3caf646f	0.021410195
38	0x3d3962b9	0.045260165
39	0x3db6d5e1	0.08927513
40	0xbd918678	-0.07105726
41	0xbca271e4	-0.019829698
42	0x3d31f782	0.043448932
43	0x3d808dcb	0.06277045
44	0x3dd14802	0.102188125
45	0x3d88cfae	0.06680237
46	0x3d328074	0.043579534
47	0x3d0a54be	0.033772223
48	0x3cff4182	0.031159166
49	0x3e09e50f	0.13466285
50	0x3e0c14bb	0.13679783
51	0x3dc0754a	0.09397371
52	0x3d15e314	0.03659351
53	0x3d81c20c	0.0633584
54	0x3e3233f7	0.17402636
55	0xbd9d90c5	-0.07693628
56	0x3e188372	0.14893892
57	0xbdd2f13e	-0.102999195
58	0xbe104347	-0.14088164
59	0x3e48ae75	0.195978
60	0xbcf4662d	-0.029833877
61	0xbef617ec	-0.48065126
62	0xbe4689a8	-0.19388449
63	0xbe9d16b0	-0.30681372
64	0x3ec13551	0.3773599
65	0xbf1624da	-0.5864998
66	0xbd91a4b5	-0.071114935
67	0x3d63bbeb	0.055599134
68	0xbc81cd1b	-0.015844872
69	0x3e55ba14	0.20871764
70	0xbea76457	-0.3269374
71	0x3e259de5	0.16173513
72	0x3c58841f	0.013215094
73	0x3dfc1b65	0.123099126
74	0x3de6d287	0.11270624
75	0xbf0d4947	-0.5518994
76	0xbe00a45a	-0.12562695
77	0x3c94ada7	0.01814921
78	0x3dab7cf7	0.083734445
79	0x3daa69f0	0.08320987
80	0xbef74b94	-0.4829985
81	0x3cce881b	0.025211385
82	0x3e580157	0.21094261
83	0x3d4d4238	0.05011198
84	0x3d3b10db	0.04567037
85	0xbf292a49	-0.6608015
86	0x3cff72f6	0.031182747
87	0x3dd5ea41	0.10445071
88	0x3e39916f	0.18121885
89	0x3ddcdf49	0.10784776
90	0xbf4b3434	-0.7937653
91	0xbe9e37d0	-0.30901957
92	0x3cdf537e	0.027261492
93	0x3da3787e	0.079819664
94	0x3e316de6	0.17327079
95	0xbd7f312e	-0.06230276
96	0xbee492a3	-0.44643125
97	0xbe9f2d96	-0.31089467
98	0xbe8e8923	-0.27839002
99	0xbddcdcaf	-0.107842796
100	0xbd68d0fb	-0.056839924
101	0xbe88dc2b	-0.26730475
102	0xbefd034a	-0.49416572
103	0xbf0dde79	-0.5541759
104	0xbf2bc3b0	-0.6709547
105	0x3e144173	0.14478092
106	0x3c8020b9	0.015640603
107	0xbcbddc19	-0.02317624
108	0xbc38eb6c	-0.011286598
109	0xbea77620	-0.3270731
110	0x3cb2daae	0.02183279
111	0x3d77feac	0.06054561
112	0xbb1b2e58	-0.0023678746
113	0xbd84052d	-0.064463
114	0xbea7feed	-0.3281168
115	0x3be6ea7b	0.007046995
116	0x3d37faa5	0.044916768
117	0x3dc52ef3	0.096280955
118	0x3ce1a1f0	0.027543038
119	0xbd6cd09c	-0.057816133
120	0x3d3354fd	0.043782223
121	0x3de6a3cf	0.11261713
122	0x3e672610	0.22573113
123	0x3e32de3e	0.17467591
124	0x3e4794dc	0.19490379
125	0x3d0a101c	0.03370677
126	0x3e27606d	0.16345377
127	0x3b3c58fa	0.0028739558
128	0xbef18649	-0.47172764
129	0xbf2647d0	-0.6495333
130	0xbdaebd13	-0.08532157
131	0xbefea51a	-0.49735337
132	0xbf7edb99	-0.9955383
133	0xbd919fd1	-0.07110561
134	0xbd69247b	-0.056919556
135	0xbef34f0c	-0.47521245
136	0xbed3ef21	-0.41393378
137	0x3e85e6be	0.26152605
138	0x3e040c1f	0.12895249
139	0xbc8a65c3	-0.016894227
140	0xbee7d690	-0.45280886
141	0x3dd94d6a	0.10610469
142	0x3da875b8	0.08225578
143	0x3cbbe03b	0.02293407
144	0x3dc26117	0.09491175
145	0xbeb79387	-0.35854742
146	0x3bc24e1c	0.0059297215
147	0x3d93bd3a	0.072138265
148	0x3df41971	0.11918915
149	0x3e6614cc	0.22468871
150	0xbd626308	-0.055270225
151	0xbd150b52	-0.03638775
152	0xbbf84e93	-0.007577726
153	0x3be6c09f	0.007042005
154	0x3da0a60a	0.078441694
155	0xbd69d778	-0.057090253
156	0xbe440ce3	-0.19145541
157	0xbd1a2468	-0.037632376
158	0x3df5c697	0.12000769
159	0xbc0b0506	-0.008485084
160	0xbd461dcb	-0.048368257
161	0xbe23a4be	-0.15980813
162	0x3ed30890	0.4121747
163	0x3e5c17ed	0.21493502
164	0xbdeac669	-0.11463625
165	0x3bc9a56e	0.006153754
166	0x3d0d230e	0.03445726
167	0x3e6b0db8	0.22954452
168	0xbdeacc68	-0.11464769
169	0xbebe29e2	-0.3714133
170	0x3e0153ac	0.12629575
171	0xbbef0d4a	-0.0072952854
172	0xbd5eb49a	-0.054371454
173	0xbe4eed7d	-0.20207782
174	0x3cb36d4d	0.021902705
175	0x3e278293	0.16358404
176	0x3d193770	0.037406385
177	0x3cd35ab1	0.025800081
178	0x3da5d819	0.08097858
179	0x3ddaa67d	0.10676286
180	0xbe02dd5c	-0.12779754
181	0x3e3af6e6	0.18258247
182	0x3d8ae3f8	0.06781763
183	0x3c29b620	0.010358363
184	0x3dd81a60	0.10551906
185	0xbe7878f2	-0.24264887
186	0x3e751a0c	0.23935717
187	0x3e005a45	0.12534435
188	0x3e6f8603	0.23390965
189	0x3c2cc2f3	0.010544526
190	0xbf7aea97	-0.98014206
191	0xbd2507f1	-0.040290777
192	0x3e847e4f	0.25877616
193	0x3e18127a	0.14850798
194	0xbed6ae76	-0.41929978
195	0xbe61108f	-0.21978973
196	0xbf79c09d	-0.9755953
197	0xbf876280	-1.0576935
198	0xbf69ddec	-0.9135425
199	0xbef2d36f	-0.47426936
200	0x3e9f3732	0.31096798
201	0x3db70f63	0.08938482
202	0xbd5d7902	-0.05407048
203	0xbddab2ca	-0.106786326
204	0xbd772cfb	-0.06034563
205	0x3e8f3d83	0.27976617
206	0xbde3c437	-0.111214094
207	0xbdccbfba	-0.099975064
208	0xbc86b86d	-0.016445363
209	0xbdc81068	-0.09768754
210	0x3da0b54c	0.0784708
211	0xbdd9a50a	-0.10627182
212	0xbdfead95	-0.12435452
213	0xbe6d7093	-0.23187475
214	0xbeab9a0e	-0.33515972
215	0x3d06fdb3	0.03295679
216	0x3d45f137	0.048325744
217	0xbce8c7f5	-0.02841566
218	0xbe253185	-0.16132171
219	0xbf045b0e	-0.5170144
220	0xbc8963c0	-0.016771197
221	0xbcda3cab	-0.026640257
222	0xbdbf8c88	-0.09352976
223	0x3c1b1036	0.009464314
224	0xbf128dbd	-0.57247525
225	0xbd2479df	-0.040155288
226	0xbca5eca3	-0.020254439
227	0xbe253f18	-0.1613735
228	0xbea86602	-0.32890326
229	0xbe65dec4	-0.2244826
230	0x3e02f24e	0.12787744
231	0xbd34a260	-0.044100165
232	0xbc8a0195	-0.016846457
233	0x3db08e81	0.086209305
234	0x3e96e8c3	0.29474458
235	0x3e161304	0.14655691
236	0x3e28f405	0.16499336
237	0x3efc18f9	0.49237803
238	0x3e9f2626	0.31083792
239	0x3e36f302	0.17866138
240	0xbcc0f68c	-0.023555063
241	0xbd33fb58	-0.043940872
242	0xbe2693fb	-0.16267388
243	0xbdcdd14c	-0.10049686
244	0x3d87ddd7	0.066341095
245	0xbdd7fa08	-0.105457366
246	0xbd21162a	-0.039327778
247	0xbdcda717	-0.100416355
248	0xbe455bca	-0.19273296
249	0xbaf51fb9	-0.0018701471

bias f4 [10]
0	0xbdf7b3a2	-0.12094809
1	0xbc1aaabb	-0.009440119
2	0xbed40dba	-0.41416723
3	0x3d247703	0.04015256
4	0xbde07e58	-0.10961598
5	0x3dab4709	0.08363158
6	0xbd958312	-0.0730039
7	0xbb46c277	-0.0030328312
8	0xbbf4a2ad	-0.0074656815
9	0xbecfb26c	-0.40565813

weight f4 [20, 10, 5, 5]
0	0xbda4d39b	-0.08048173
1	0xbd1116e0	-0.035422206
2	0xbde7a038	-0.11309856
3	0xbd8c9c5e	-0.06865762
4	0xbd5df8cf	-0.05419236
5	0xbce4694c	-0.02788224
6	0xb9b9d5a9	-0.0003544514
7	0xbd063e3e	-0.032774203
8	0xbdc680b8	-0.0969252
9	0xbd48724c	-0.048937127
10	0x3d290939	0.04126856
11	0xbda41e0c	-0.080135435
12	0xbd972be4	-0.07381418
13	0xbdf5f2c0	-0.120091915
14	0x3b2dc797	0.002651667
15	0xbdeea5b9	-0.11652703
16	0xbda466c4	-0.080274135
17	0xbc8fc635	-0.017550567
18	0xbdc42dcf	-0.0957905
19	0xbb881963	-0.004153417
20	0xbdf2f827	-0.118637376
21	0xbde53ac5	-0.1119285
22	0xbd5bd74f	-0.05367213
23	0xbda9df82	-0.08294584
24	0xbce4b90e	-0.027920272
25	0xbd0869a0	-0.033303857
26	0x3b19477e	0.002338856
27	0xbd6abc31	-0.05730838
28	0x3d0a41ce	0.033754162
29	0xbdc19181	-0.09451581
30	0xbd6b3ef6	-0.05743309
31	0xbd5458ee	-0.051842622
32	0xbcef249e	-0.029192265
33	0xbd490295	-0.049074728
34	0xbc92dad4	-0.017926611
35	0xbdb67094	-0.08908191
36	0xbda453cd	-0.08023796
37	0xbd436441	-0.04770303
38	0xbd092b7f	-0.033488747
39	0xbad7edf1	-0.001647411
40	0xbdd6552e	-0.104654655
41	0xbd492cf2	-0.04911513
42	0xbc6a9c73	-0.014319527
43	0xbc012049	-0.007881233
44	0x377119cd	1.4370727e-05
45	0xbd80803c	-0.06274459
46	0xbd955c95	-0.07293049
47	0xbd92a2fa	-0.071599916
48	0xbdefd3f4	-0.11710349
49	0xbd37b2a9	-0.044848118
50	0xbd8e267e	-0.069409356
51	0xbda5f075	-0.08102504
52	0xbd43ea06	-0.047830604
53	0x3d6594e6	0.056050204
54	0x3d9e4f0b	0.0772992
55	0xbd1a8910	-0.03772837
56	0x3d744979	0.05964038
57	0x3cfa3b94	0.030545987
58	0x3d829ace	0.06377183
59	0xbdd8a66f	-0.1057862
60	0xbcaf9267	-0.021432115
61	0x3df591bf	0.119906895
62	0xbdbe50a0	-0.09292722
63	0xbdb3435d	-0.08753083
64	0xbd6f7fc7	-0.058471467
65	0xbc38f684	-0.011289243
66	0x3b4561e9	0.0030118173
67	0xbd3f1866	-0.046654128
68	0xbda90a44	-0.08253911
69	0xbd6d58fe	-0.057946198
70	0x3b235c0d	0.0024926693
71	0xbdf2d4d1	-0.11856998
72	0xbdcb0abe	-0.09914158
73	0xbba4f699	-0.0050342795
74	0x3d2b007c	0.04174851
75	0xbdf29d3d	-0.11846397
76	0xbd122e1c	-0.035688505
77	0xbd8dbd61	-0.06920887
78	0xbc8fd04d	-0.01755538
79	0xbd5fad2a	-0.0546085
80	0x3d7172e6	0.058947466
81	0xbddefc17	-0.10887926
82	0xbd990185	-0.07470993
83	0xbad12625	-0.0015956803
84	0xbc082576	-0.008309713
85	0x3cb98e3b	0.022650829
86	0xbd40fdbe	-0.047116987
87	0xbd4bf00a	-0.049789466
88	0xbd34a72e	-0.044104747
89	0xbdd3331f	-0.10312485
90	0xbcf2f5d2	-0.029658232
91	0xbd949934	-0.07255784
92	0xbbc4f715	-0.0060109
93	0xbd17bf6f	-0.0370478
94	0xb9834d84	-0.0002504402
95	0xbd3a378e	-0.045463137
96	0xbc3a72cd	-0.01137991
97	0xbcc37cfd	-0.02386331
98	0xbc280ec2	-0.010257425
99	0xbde40ef2	-0.11135663
100	0xbceacee6	-0.02866311
101	0xbdb803de	-0.089851126
102	0xbd30d010	-0.043167174
103	0xbdee0c49	-0.11623437
104	0xbd78fa41	-0.060785536
105	0xbd0a9bc3	-0.033839952
106	0xbd43552a	-0.04768864
107	0xbd280320	-0.041018605
108	0xbd6c21b8	-0.057649344
109	0x3b39aa7d	0.0028330379
110	0xbd9a4a87	-0.07533746
111	0xbdde9a7f	-0.108693115
112	0xbc8f867c	-0.017520182
113	0xbdc74bb0	-0.09731233
114	0xbd9873f9	-0.07443995
115	0xbd4bf11a	-0.04979048
116	0xbd632099	-0.05545101
117	0xbd871197	-0.06595152
118	0xbd9f8b83	-0.077902816
119	0xbcc9b2d8	-0.024621412
120	0xbd5b27cd	-0.053504754
121	0xbd76cebe	-0.06025576
122	0xbc5ca539	-0.0134671265
123	0xbd39c87e	-0.04535722
124	0xbced3778	-0.028957114
125	0xbd059b5b	-0.03261886
126	0xbdd2f0bf	-0.10299825
127	0xbddd8598	-0.108164966
128	0xbdb37b55	-0.08763758
129	0xbdd79f5c	-0.10528442
130	0x3d815aca	0.06316145
131	0x3d85de99	0.06536598
132	0xbdfc5048	-0.1232
133	0xbd830297	-0.06396978
134	0xbd1b0aab	-0.03785197
135	0x3dd7d282	0.10538198
136	0xbd40ab7a	-0.047038533
137	0xbd4110ae	-0.047135048
138	0xbd41fe8b	-0.04736189
139	0xbd3f3391	-0.046680037
140	0xbd4ea8a9	-0.050453816
141	0xbdf0ebed	-0.11763749
142	0xbd904d4d	-0.07045994
143	0xbddaf626	-0.1069148
144	0xbdda77ef	-0.10667407
145	0xbdae99fd	-0.08525465
146	0xbcc9eef1	-0.024650069
147	0x3b53766f	0.0032266637
148	0xbd75c5dd	-0.06000315
149	0xbd91f48a	-0.0712672
150	0xbdbc9d2a	-0.09209664
151	0x3b80646a	0.0039182203
152	0xbdd0c689	-0.101941176
153	0xbd4d8937	-0.050179686
154	0xbd250e75	-0.04029699
155	0xbd81662b	-0.06318315
156	0xbcece9c7	-0.028920067
157	0x3a4cc2d6	0.0007811015
158	0xbd39eb79	-0.04539058
159	0xbdcb6372	-0.09931077
160	0xbcaae831	-0.02086267
161	0xbd62ba0c	-0.05535321
162	0xbdeb7b01	-0.114980705
163	0x3cfd4ac1	0.030919435
164	0xbdfa527c	-0.12222764
165	0xbdde7835	-0.108627714
166	0xbda84c91	-0.08217729
167	0xbdc344ef	-0.095346324
168	0x3dab0470	0.08350456
169	0xbcb4256d	-0.021990502
170	0x3dd544ba	0.10413499
171	0x3d305838	0.043052882
172	0x3c37e4a7	0.011223949
173	0x3cad9344	0.021188386
174	0x3d39dfca	0.045379438
175	0xbc05267a	-0.008126849
176	0xbd8eae3b	-0.069668256
177	0xbd8728bf	-0.065995686
178	0xbdd9058f	-0.10596763
179	0xbd1ff1b4	-0.039048865
180	0xbd81e5d2	-0.06342663
181	0xbd00f1e9	-0.031480704
182	0xbdf47bb9	-0.11937661
183	0xbde7262a	-0.11286576
184	0xbdc6567c	-0.09684464
185	0xbb11541a	-0.0022175373
186	0xbda14823	-0.07875087
187	0xbdccf8ad	-0.10008369
188	0xbd6ef1b4	-0.058335975
189	0xbdb17baf	-0.08666169
190	0xbdcddb45	-0.10051588
191	0xbd8dae2a	-0.06917985
192	0xbd9648cf	-0.07338106
193	0xbda871f1	-0.082248576
194	0xbd0daf2a	-0.034590878
195	0xbd838f31	-0.06423796
196	0xbc81d832	-0.01585016
197	0xbd58c020	-0.0529176
198	0xbd20d21e	-0.039262883
199	0xbd519784	-0.051169887
200	0xbdbc37ff	-0.09190368
201	0xbc07a737	-0.008279613
202	0xbd917ae0	-0.07103515
203	0xbd48b30a	-0.04899887
204	0xbdedb64d	-0.11607037
205	0xbdd2d136	-0.1029381
206	0xbd630685	-0.05542614
207	0xbd134e60	-0.035963416
208	0xbd79d935	-0.06099816
209	0xbdf0782e	-0.117416725
210	0xbd20d2b6	-0.03926345
211	0xbca74cf2	-0.020422433
212	0xbdbdac58	-0.092613876
213	0xbb7c8958	-0.0038534012
214	0xbdcd245d	-0.10016701
215	0xbdd2a4e3	-0.10285356
216	0xbd26547c	-0.040607914
217	0xbc94cf0b	-0.018165132
218	0xbda55dd2	-0.080745354
219	0xbcfaa280	-0.030595064
220	0xbdcdedee	-0.10055147
221	0xbd22cff4	-0.0397491
222	0xbc856368	-0.016282752
223	0xbd662070	-0.05618328
224	0xbdbcdb10	-0.0922147
225	0x3b168900	0.0022969842
226	0xbd0e3015	-0.034713823
227	0xbdc7d069	-0.09756548
228	0x3d80b0bf	0.06283712
229	0x3d30c17d	0.043153275
230	0xbd5ae68f	-0.053442534
231	0xbda0e50c	-0.07856187
232	0xbb3b2c61	-0.0028560387
233	0x3c644d1d	0.013934401
234	0x3de371d6	0.11105697
235	0x3d9f8eb8	0.07790893
236	0xbc0cf461	-0.008603186
237	0x3dbe8e30	0.09304464
238	0xbd83ca63	-0.064350866
239	0xbd654a62	-0.05597914
240	0xbcf23c12	-0.02956966
241	0xbce45e6a	-0.027877051
242	0xbd1c6a22	-0.038187154
243	0xbdeead5e	-0.11654161
244	0xbdc34085	-0.095337905
245	0xbdb5c897	-0.0887615
246	0xbda94d92	-0.082667485
247	0xbda1ee59	-0.07906789
248	0xbd707e21	-0.058714036
249	0xbca5c217	-0.02023415
250	0xbef88d5b	-0.48545346
251	0xbeabd2b5	-0.33559194
252	0x3e3a7ee5	0.18212469
253	0x3ea2e9eb	0.3181909
254	0x3f255cb8	0.645946
255	0x3d488218	0.048952192

bias f4 [20]
0	0xbbf27878	-0.007399615
1	0x3f00eb0e	0.50358665
2	0xbebe9c47	-0.37228605
3	0xbe993be7	-0.29928514
4	0x3f5c1c3e	0.85980594
5	0xbdba2c00	-0.090904236
6	0xbdd07eb1	-0.101804145
7	0xbebde057	-0.3708522
8	0xbdc677d1	-0.09690822
9	0xbdd7260e	-0.10505305
10	0x3deed35c	0.11661407
11	0x3e0ae43f	0.13563631
12	0xbf776efc	-0.96653724
13	0xbf7536a2	-0.9578649
14	0x3d95b625	0.07310132
15	0xbdff1a4c	-0.124561876
16	0x3e338838	0.17532432
17	0xbc8b6282	-0.017014746
18	0xbeca6a4a	-0.39534217
19	0xbefb445b	-0.4907559

weight f4 [50, 320]
0	0xbce79f8e	-0.028274324
1	0x3d30d2ac	0.043169662
2	0x3cb6c9b0	0.022312969
3	0x3d72a8a1	0.05924285
4	0x3c1bff72	0.009521352
5	0xbca9bb40	-0.02071917
6	0x3d9e6fa0	0.077361345
7	0x3cc6abe8	0.024251893
8	0x3d7d8167	0.061890986
9	0xbd1d1782	-0.038352497
10	0x3d816ff6	0.06320183
11	0x3dde5967	0.10856896
12	0x3ddc5b71	0.107596286
13	0x3d10cb85	0.03535034
14	0x3de69868	0.11259538
15	0x3cee293a	0.029072393
16	0xbd28113e	-0.04103207
17	0xbe0836ff	-0.1330223
18	0xbdbbb02b	-0.09164461
19	0x3ceca21c	0.028885894
20	0x3d3cf525	0.046132226
21	0xbeab4ab7	-0.3345544
22	0xbe15b52a	-0.1461989
23	0x3db37692	0.0876285
24	0xbe355c8e	-0.17711088
25	0x3e00d1c6	0.12580022
26	0x3c5c0d99	0.013430976
27	0x3e486d95	0.19573052
28	0xbd0803fc	-0.033206925
29	0x3eabe133	0.3357025
30	0x3eb4c65f	0.35307595
31	0x3da3d995	0.08000485
32	0x3e07c655	0.13259251
33	0x3e9da89a	0.30792695
34	0x3ddc0d55	0.107447304
35	0xbf29540a	-0.6614386
36	0x3e0fa20f	0.14026664
37	0x3da27108	0.07931715
38	0xbd8ce12a	-0.06878884
39	0xbf14a0c7	-0.58057827
40	0x3ecc81eb	0.3994287
41	0xbeb350fb	-0.3502272
42	0x3d89dbc4	0.0673137
43	0xbe67ef3f	-0.22649859
44	0x3f32432e	0.6963376
45	0xbed8828d	-0.42287102
46	0xbfaa095f	-1.328411
47	0xbf7b328c	-0.98124003
48	0xc0007d75	-2.0076573
49	0x3e1c1aa7	0.15244542
50	0x3d12998d	0.03579097
51	0xbd3e48a4	-0.046455994
52	0xbf10764a	-0.56430495
53	0xbdf9226e	-0.1216477
54	0x3dbc53e8	0.09195691
55	0xbda549c9	-0.08070714
56	0x3c9f2e05	0.019431124
57	0x3dc692d6	0.096959755
58	0xbdffd013	-0.12490859
59	0x3e4ee337	0.20203863
60	0x3e7a7fb1	0.24462773
61	0x3e3c1359	0.18366756
62	0xbe6962bb	-0.22791569
63	0x3e2c436d	0.16822596
64	0xbf25d247	-0.6477398
65	0x3f5ed5eb	0.8704516
66	0x3efd0462	0.49417406
67	0x3e90371c	0.28167045
68	0xbf0320b2	-0.51221764
69	0x3e63a170	0.22229552
70	0x3e9cf34a	0.30654365
71	0x3e49745c	0.19673294
72	0xbe0e3772	-0.13888338
73	0xbf55ff7d	-0.8359297
74	0x3d8f849b	0.07007714
75	0x3e860db4	0.2618233
76	0x3e921301	0.28530124
77	0xbfb0d649	-1.3815395
78	0xbfa38519	-1.2774993
79	0xbfb9593e	-1.448036
80	0xbf1f2270	-0.6216192
81	0x3e497b13	0.19675855
82	0x3bcb739f	0.0062088515
83	0x3e709be3	0.23496966
84	0x3e9c9e13	0.3058935
85	0x3e709467	0.23494111
86	0xbeb95897	-0.362004
87	0x3da49ada	0.08037348
88	0x3e77fda6	0.24217853
89	0x3dbfbc9e	0.09362148
90	0xbd0b1486	-0.03395512
91	0xbe04cb75	-0.12968238
92	0x3f31e8cc	0.69495845
93	0xbea81f00	-0.3283615
94	0xbe297940	-0.1655016
95	0xbe146c47	-0.1449443
96	0x3d9e32d0	0.077245355
97	0x3c7f6445	0.015587871
98	0x3d9a5167	0.075350575
99	0x3cfbf163	0.03075475
100	0x3dca33d2	0.09873165
101	0xbd12a90d	-0.03580575
102	0x3d4bfbdd	0.049800742
103	0x3dbf78cd	0.09349213
104	0x3d891b23	0.06694629
105	0xbc807676	-0.015681487
106	0x3dc4f65d	0.096173026
107	0xbce26d9e	-0.02764016
108	0xbd960955	-0.07325999
109	0xbc1aa7d6	-0.009439429
110	0xbdb42ea3	-0.08797958
111	0x3c8b65ac	0.017016254
112	0xbe54a8cc	-0.20767516
113	0xbe81f257	-0.25380203
114	0xbf5a633c	-0.8530767
115	0x3d04e7b3	0.032447528
116	0xbed22145	-0.41041008
117	0xbf8d018f	-1.1016101
118	0xbe8bb6fc	-0.27288043
119	0x3d7060ee	0.05868619
120	0x3e80a0cc	0.25122678
121	0xbc90b7c1	-0.017665746
122	0x3da8e02d	0.08245883
123	0x3e6e60e1	0.23279144
124	0x3e1f5c5b	0.15562575
125	0x3e59dba6	0.21275195
126	0x3e9e3de5	0.30906597
127	0x3ea61bd2	0.324431
128	0x3da1af0b	0.07894715
129	0x3d85a0df	0.06524824
130	0x3d97988a	0.074021414
131	0xbd7bf8d5	-0.0615166
132	0xbda0d5c5	-0.07853273
133	0xbd86a378	-0.06574148
134	0x3cfc0d87	0.03076817
135	0xbdace8e0	-0.08442855
136	0xbd924296	-0.071416065
137	0xbde71c53	-0.11284699
138	0x3c7b6b79	0.015345448
139	0x3de4983f	0.11161851
140	0x3dacf521	0.08445192
141	0x3d57bab7	0.0526683
142	0x3ce31338	0.027719125
143	0x3d10273d	0.03519367
144	0x3d505ded	0.050870825
145	0x3c3cdcb0	0.011527225
146	0x3d949ad0	0.07256091
147	0x3cbbfb94	0.02294711
148	0x3d5665b8	0.0523431
149	0x3db7243d	0.08942459
150	0x3d289470	0.041157186
151	0x3d40aabc	0.047037825
152	0xbd9dbe7d	-0.077023484
153	0xbd03eaa8	-0.032206208
154	0xbd93b772	-0.07212724
155	0xbd2105bd	-0.039312113
156	0xbd491364	-0.049090758
157	0x3c93e61c	0.01805406
158	0x3ddcf194	0.10788265
159	0x3cd9264c	0.02650752
160	0x3e9fc112	0.31201988
161	0x3b2564b0	0.0025237016
162	0x3e0b8f19	0.13628806
163	0x3dc1255a	0.09430952
164	0xbe9109ca	-0.2832778
165	0xbebaff78	-0.36523032
166	0x3cc50f2d	0.024055088
167	0xbe6930a3	-0.2277246
168	0x3d785b4d	0.060633946
169	0x3dbed6e7	0.09318333
170	0xbe16b617	-0.147179
171	0x3cedf5db	0.029047897
172	0xbe353408	-0.1769563
173	0x3ed93867	0.42425844
174	0x3d7df9a4	0.062005654
175	0xbddf7f5c	-0.10912964
176	0xbf89f858	-1.0778913
177	0xbf2520e1	-0.64503294
178	0xbf2d3487	-0.67658275
179	0xbf687740	-0.9080696
180	0xbf9be95c	-1.2180591
181	0xbe7543f4	-0.23951703
182	0xbe97b2a8	-0.2962849
183	0xbe87b552	-0.26505524
184	0x3d618b96	0.05506476
185	0x3e094500	0.13405228
186	0x3da72349	0.08161027
187	0x3d9ef4fe	0.07761572
188	0x3ed32eac	0.41246545
189	0x3ebd1c7b	0.3693579
190	0x3df0f04a	0.117645815
191	0xbdf4f616	-0.11961
192	0xc001aba7	-2.0261018
193	0xbff82b64	-1.9388242
194	0x3f231218	0.63699484
195	0x3f6a46b8	0.9151416
196	0xbef9c9c7	-0.48786756
197	0xbeae4cfb	-0.34043106
198	0x3e09df2a	0.13464037
199	0x3ea1e516	0.3162009
200	0x3cd25fcf	0.02568045
201	0xbd941ac4	-0.07231668
202	0xbe655a5f	-0.22397755
203	0x3e2ff3fd	0.17182918
204	0x3e9b8269	0.30372933
205	0x3eb4211d	0.35181513
206	0x3c682395	0.01416864
207	0x3c8e46ca	0.01736774
208	0xbde840ad	-0.11340461
209	0xbdcf121e	-0.101108775
210	0xbf169c1e	-0.58831966
211	0xbe7db3e4	-0.24775654
212	0x3a826ee3	0.000995126
213	0x3e175455	0.14778264
214	0xbecd59db	-0.40107617
215	0xbd4c78e8	-0.049919993
216	0x3e8556e7	0.26042864
217	0x3e4aa0f5	0.19787963
218	0x3e1d2f7f	0.1535015
219	0x3ea79a74	0.32735026
220	0x3e8546c0	0.2603054
221	0x3e6bfe6a	0.2304627
222	0x3ea54fb4	0.3228737
223	0x3e85295c	0.26008117
224	0xbf4ceb43	-0.8004648
225	0xbea430de	-0.32068533
226	0x3d81bca2	0.06334807
227	0xbfbac524	-1.4591413
228	0xbed73300	-0.42031097
229	0x3c39aa51	0.0113321105
230	0x3ecdfe83	0.4023324
231	0xbf8ecbe0	-1.1155968
232	0xbed3d2df	-0.4137182
233	0x3ec11151	0.37708524
234	0x3f002770	0.50060177
235	0xbf43ec8a	-0.76532805
236	0x3e6993da	0.22810307
237	0x3ef04de3	0.46934423
238	0x3e91486f	0.28375575
239	0xbe93b1fc	-0.2884673
240	0xbd4fa851	-0.05069763
241	0xbcd4ff95	-0.026000777
242	0xbda477f0	-0.08030689
243	0xbd8e8539	-0.06959004
244	0xbd53644d	-0.051609326
245	0x3db666f3	0.08906355
246	0x3d94d15b	0.07266494
247	0x3d08d99a	0.033410646
248	0x3ddec7ec	0.10877976
249	0x3c8541af	0.016266672
250	0x3dab4c7e	0.08364199
251	0x3dbcbb75	0.09215442
252	0x3dd46a74	0.10371867
253	0xbd8ddbf4	-0.06926718
254	0x3d75e759	0.060035083
255	0x3c8fd303	0.017556673

bias f4 [50]
0	0x3f89ef16	1.0776088
1	0x3f02f1cb	0.51150197
2	0x3f8d3a70	1.1033459
3	0x3f89e763	1.0773739
4	0xbf76add7	-0.9635901
5	0x3f777339	0.9666019
6	0x3e0ea92d	0.13931723
7	0x3fa51e81	1.2899934
8	0xbde4a963	-0.111651205
9	0x3fce4d1e	1.6117284
10	0x3fab4291	1.337969
11	0x3ed82288	0.42213845
12	0x3eb7a31d	0.35866633
13	0x3dddf999	0.108386226
14	0x3f5200bc	0.8203237
15	0xbeb1c954	-0.34723914
16	0xbde480d1	-0.11157382
17	0xbefa0a7e	-0.4883613
18	0x3f888de4	1.0668302
19	0x3ef0cbb6	0.4703042
20	0x3ee38cdd	0.44443408
21	0x3f36c7f9	0.71398884
22	0xbe65c362	-0.22437814
23	0x3f276254	0.6538441
24	0x3ed4ebc7	0.41586134
25	0x3f5f2abd	0.8717459
26	0xbf49e611	-0.7886668
27	0x3f8d9006	1.1059577
28	0x3f759b32	0.95939934
29	0x3f9b4e35	1.2133242
30	0x3fb8dc1f	1.4442176
31	0x3f6311f6	0.8869928
32	0x3fbad9bc	1.4597697
33	0x3e971875	0.29510847
34	0x3f50809a	0.8144623
35	0x3de950d1	0.11392368
36	0xbdf54c84	-0.11977485
37	0xbca8f3f5	-0.02062414
38	0x3f282fde	0.6569804
39	0xbe774e62	-0.24150994
40	0x3f41a516	0.75642526
41	0x3db7ba62	0.089710966
42	0x3e8e9035	0.27844396
43	0x3c8aa8a0	0.01692611
44	0x3f8e9518	1.113925
45	0x3f7f3d28	0.9970269
46	0xbe2e194a	-0.17001835
47	0x3e31b3bf	0.17353724
48	0x3e1f2031	0.15539624
49	0x3f4bd617	0.7962355

weight f4 [10, 50]
0	0x3e08d433	0.13362198
1	0xbe65f3b2	-0.22456244
2	0x3e06760f	0.13130973
3	0xbe425ff5	-0.18981917
4	0xbd2c3855	-0.04204591
5	0xbe1a0879	-0.15042295
6	0x3e19cb8b	0.15019052
7	0x3e659503	0.22420125
8	0xbe0fa4c0	-0.14027691
9	0xbe6ab9bf	-0.22922419
10	0xbe5b55d8	-0.21419466
11	0x3d9034ad	0.07041297
12	0x3df77430	0.12082708
13	0x3e35328c	0.17695063
14	0xbdbd55ba	-0.09244867
15	0xbdb3bb7c	-0.08775994
16	0x3c712db9	0.014720374
17	0xbdc9c04b	-0.0985113
18	0x3a0c568b	0.0005353472
19	0xbe9438e6	-0.2894966
20	0x3e166ddb	0.14690344
21	0xbe246ded	-0.16057558
22	0xbe763f02	-0.24047473
23	0xbe5cd2db	-0.2156481
24	0xbe34c4e7	-0.17653237
25	0xbebf3f59	-0.37353018
26	0xbc17166d	-0.009221655
27	0x3da00e42	0.078152195
28	0xbe10c078	-0.14135921
29	0x3ddd3f22	0.10803057
30	0x3e491abc	0.19639105
31	0xbe857aba	-0.26070195
32	0xbdbede19	-0.093197055
33	0x3e390fa5	0.18072374
34	0x3df45e9e	0.11932109
35	0xbdb91872	-0.09037866
36	0x3e50316a	0.2033135
37	0xbe61fe9a	-0.22069779
38	0x3dab2485	0.08356575
39	0xbd933249	-0.071873255
40	0x3e41c819	0.18923987
41	0xbd888b54	-0.066672
42	0xbe0afcfa	-0.13573065
43	0xbdf4b4b1	-0.11948527
44	0x3c88a3f3	0.01667974
45	0xbda405e7	-0.08008938
46	0x3dfcc446	0.12342124
47	0xbd206b0c	-0.039164588
48	0x3e45657e	0.19276997
49	0xbe8a8fd2	-0.2706285
50	0x3dd7e2e1	0.105413206
51	0xbdfd35fa	-0.12363811
52	0x3ddd290a	0.10798843
53	0x3e407e1c	0.18798107
54	0xbe4664b8	-0.19374359
55	0x3e44ae2f	0.19207071
56	0xbe4bc689	-0.19899954
57	0xbe28cf78	-0.16485393
58	0xbc66316d	-0.01404987
59	0x3e21465e	0.15749499
60	0x3eb8f75d	0.36126223
61	0xbe254276	-0.16138634
62	0xbe0e1a72	-0.13877276
63	0xbe4ef7f3	-0.20211773
64	0x3cd1f98c	0.025631689
65	0xbb1f5307	-0.0024310963
66	0xbe905074	-0.2818638
67	0xbd3d8773	-0.046271753
68	0xbe30dfeb	-0.17272918
69	0x3e33bd20	0.17552614
70	0xbe8eb628	-0.2787335
71	0xbe01e2d8	-0.1268419
72	0xbdd0a3c0	-0.10187483
73	0x3e4c590c	0.19955844
74	0x3de90504	0.1137791
75	0xbc934405	-0.01797677
76	0x3c9449a9	0.01810153
77	0xbeb065d0	-0.34452677
78	0xbd934542	-0.07190944
79	0x3dc9fd27	0.09862738
80	0x3e48891a	0.1958355
81	0x3e3cfc7f	0.18455695
82	0x3e6332fd	0.22187419
83	0xbec383b8	-0.3818643
84	0xbe9ba4f0	-0.30399275
85	0xbddae290	-0.106877446
86	0xbebdb3d6	-0.37051266
87	0xbdd78fa8	-0.10525447
88	0xbdb14307	-0.086553626
89	0xbe60d261	-0.21955253
90	0xbeb05dcb	-0.34446558
91	0xbc8628bc	-0.016376846
92	0xbd5a1fda	-0.053253032
93	0xbc60b62c	-0.013715308
94	0x3e824cdf	0.25449273
95	0x3e4d9a26	0.20078334
96	0xbeba4f27	-0.36388513
97	0xbe2bb23e	-0.16767213
98	0xbe5525b2	-0.20815161
99	0x3e4fa160	0.20276403
100	0x3e2ef6b0	0.17086291
101	0x3c1ade90	0.009452477
102	0xbe2a69a7	-0.16641866
103	0x3e4b4e4e	0.1985409
104	0x3c6dad00	0.014506578
105	0x3e5fa915	0.21841843
106	0x3e031518	0.12801015
107	0x3d939b6b	0.07207378
108	0x3e3d3516	0.18477282
109	0xbda86cee	-0.08223902
110	0xbdcdf0f6	-0.10055725
111	0x3dcb223b	0.09918638
112	0x3e00c807	0.12576304
113	0x3d2ba14c	0.04190187
114	0x3e7e9366	0.24860916
115	0x3e4c40d9	0.19946612
116	0xbdbb2193	-0.09137263
117	0x3e1bfcb0	0.15233111
118	0x3c4eef8e	0.0126303565
119	0xbd709005	-0.058731098
120	0xbdf4942a	-0.119423226
121	0xbe15c5c0	-0.14626217
122	0xbcf85616	-0.030314486
123	0x3e3a5dce	0.18199846
124	0xbe2eca5e	-0.17069384
125	0x3d7111db	0.05885492
126	0x3dc2a7e7	0.09504681
127	0xbdae378e	-0.0850669
128	0x3bf79408	0.0075554885
129	0xbe1c2deb	-0.15251891
130	0x3d0cc323	0.034365784
131	0xbe17f3f9	-0.14839162
132	0x3c73dd67	0.014884329
133	0xbdab4004	-0.083618194
134	0x3dd43cbd	0.103631474
135	0x3deb33c5	0.11484484
136	0xbd327793	-0.043571066
137	0x3dd6dd4d	0.104914285
138	0x3de608c8	0.11232144
139	0xbe059e71	-0.13048722
140	0xbbdc9230	-0.006731294
141	0xbd85ee8a	-0.06539638
142	0xbd80ba51	-0.06285537
143	0x3e24269f	0.16030358
144	0x3c85fe77	0.01635669
145	0xbd9727de	-0.07380651
146	0x3dea400d	0.11437998
147	0x3e0129e2	0.12613633
148	0xbdd8b83f	-0.10582017
149	0x3e55680e	0.20840475
150	0x3e192168	0.1495415
151	0x3c772a31	0.015085743
152	0xbda08b5d	-0.078390814
153	0x3e6cd193	0.23126821
154	0xbc3dc609	-0.01158286
155	0xbd44682e	-0.047950916
156	0xbda9b970	-0.082873225
157	0x3ce124f1	0.027483435
158	0xbd07783f	-0.03307366
159	0x3e2e0c9d	0.16996999
160	0xbe1c4f8f	-0.15264724
161	0x3d81401d	0.06311057
162	0x3e0af37e	0.13569447
163	0xbce9ebd6	-0.028554838
164	0x3e7522e0	0.23939085
165	0x3d87ebd9	0.06636781
166	0x3e25c07a	0.16186705
167	0x3cc699d7	0.024243278
168	0x3e0b0ea8	0.1357981
169	0xbd8f895e	-0.070086226
170	0x3e1195e3	0.14217333
171	0x3e4b55ec	0.19856995
172	0xbc88347f	-0.016626595
173	0xbcc3cd7d	-0.023901695
174	0x3e2456e5	0.16048773
175	0x3e63b777	0.22237955
176	0xbe047224	-0.12934166
177	0xbe10cf72	-0.14141634
178	0x3e4823fa	0.19544974
179	0xbe657ee0	-0.2241168
180	0xbdb2c12b	-0.0872825
181	0xbe2d441e	-0.16920516
182	0x3ce886a9	0.028384523
183	0xbdcb14a4	-0.09916046
184	0x3e0b77e8	0.1361996
185	0xbc106995	-0.008814235
186	0xbe3a5ff3	-0.18200664
187	0x3dce8b4b	0.10085162
188	0x3db5df0e	0.08880435
189	0xba2c5ab2	-0.0006574794
190	0xbcdc6a39	-0.02690612
191	0x3e41097c	0.18851274
192	0x3e5d48b9	0.21609773
193	0x3e3d1def	0.1846845
194	0xbcdb4b5e	-0.026769336
195	0x3d42445d	0.047428478
196	0xbd645f6e	-0.05575507
197	0xbda81821	-0.08207727
198	0x3d92f234	0.07175103
199	0x3bfb68fa	0.0076724263
200	0xbd8d1e4e	-0.06890546
201	0x3e6f2cbf	0.23356913
202	0xbe1722dd	-0.14759393
203	0xbdb01308	-0.0859738
204	0x3d46aff4	0.048507646
205	0xbe026802	-0.12734988
206	0x3c349469	0.011021712
207	0xbdc7c67a	-0.09754653
208	0x3e49a4c1	0.19691755
209	0xbd7b813e	-0.06140255
210	0xba134004	-0.0005617144
211	0xbdfaf946	-0.122545764
212	0xbdbc3bda	-0.09191103
213	0x3e2c0a9c	0.16800922
214	0xbd8e5e86	-0.06951623
215	0xbceacde9	-0.028662639
216	0xbe1b3bcf	-0.15159534
217	0xbd82efe7	-0.06393414
218	0xbe0168a4	-0.12637573
219	0x3e50a5f3	0.20375805
220	0xbe6058d3	-0.21908884
221	0x3e502491	0.20326449
222	0x3e25c83b	0.16189663
223	0x3e41b14d	0.18915291
224	0xbcd4b8cc	-0.025967024
225	0x3e4eab3a	0.20182505
226	0x3df785b5	0.120860495
227	0xbdb92080	-0.09039402
228	0x3b9a4ef7	0.0047091204
229	0xbc2d2d56	-0.010569891
230	0x3e471f2a	0.19445482
231	0x3e3af1f1	0.18256356
232	0x3e477188	0.19476902
233	0x3e4323a2	0.19056562
234	0x3e207eae	0.15673324
235	0x3e194cbe	0.14970681
236	0x3e48f3da	0.19624272
237	0x3da78b93	0.081809185
238	0xbe10bd2a	-0.1413466
239	0x3e1bc4b5	0.15211757
240	0xbd3011d6	-0.04298576
241	0xbda06487	-0.07831674
242	0xbe41a730	-0.18911433
243	0xba35a199	-0.0006928682
244	0xbd8f1109	-0.06985671
245	0xbcb918f6	-0.02259491
246	0xbd639a2b	-0.055566948
247	0x3e17da4d	0.14829369
248	0xbde1e1c6	-0.11029391
249	0x3e526af8	0.20548618
250	0xbd50637c	-0.050876126
251	0x3e589be3	0.21153216
252	0x3e0ed802	0.13949588
253	0xbd9fa373	-0.07794847
254	0xbe016186	-0.12634858
255	0xbd367fab	-0.044555347

bias f4 [10]
0	0x3ee1e7e0	0.4412222
1	0x3fb1a701	1.387909
2	0x3e1c2732	0.15249327
3	0xbed2ecb6	-0.4119622
4	0xbe6cfeed	-0.23144121
5	0x3ed69b9c	0.41915596
6	0xbf885b1d	-1.0652806
7	0xbdb53aad	-0.08849082
8	0x3e2e10f0	0.16998649
9	0xbf827eb0	-1.0194912
